Qlocal.pth (torch, 757650 bytes, 33 tensors)

feauture_layer.0.weight f4 [128, 91]
0	0x3d1f23bd	0.038852442
1	0xbdb9bf57	-0.09069698
2	0xbdca2cf9	-0.09871859
3	0x3d0d02ab	0.034426372
4	0x3d54bcb4	0.051937774
5	0xbdb98dfb	-0.09060284
6	0x3d20ff18	0.039305776
7	0x3d978b85	0.07399658
8	0xbd4c58b4	-0.04988928
9	0x3d3c60d3	0.045990776
10	0x3c26b3b9	0.010174685
11	0xbd957ca8	-0.07299167
12	0xbd52858b	-0.051396888
13	0xbd78c96a	-0.06073896
14	0xbd3c017d	-0.045899857
15	0xbd02e3ef	-0.031955656
16	0x3d6be55f	0.057591792
17	0xbd04fa31	-0.032465164
18	0x3cfd0aad	0.03088888
19	0x3c91d66e	0.017802443
20	0xbcc033d9	-0.023462223
21	0xbda622a4	-0.08112076
22	0x3cb1a72c	0.02168616
23	0xbcc81a90	-0.024426728
24	0x3d940878	0.07228178
25	0x3d8b0273	0.067875765
26	0x3d8d586e	0.06901632
27	0xbd9795ea	-0.07401641
28	0x3da90317	0.082525425
29	0x3d07f08e	0.033188395
30	0xbd8dd332	-0.06925048
31	0x3b5362ad	0.003225486
32	0x3d49c9d2	0.049264736
33	0x3d5c982e	0.053856067
34	0xbdc28e03	-0.09499743
35	0xbd8c5e1c	-0.068538874
36	0x3be7dd58	0.007075947
37	0x3c561649	0.013066837
38	0xbd859d1f	-0.06524109
39	0x3da06adc	0.07832882
40	0xbd9d7a8d	-0.0768939
41	0xbd45dceb	-0.048306387
42	0x3dbfc80b	0.09364327
43	0x3d73da59	0.059534404
44	0xbd88d002	-0.06680299
45	0xbd372018	-0.04470834
46	0xbd3f28c1	-0.046669725
47	0xbd83fe41	-0.064449795
48	0xbd47c96f	-0.048776086
49	0xbd7c4661	-0.061590556
50	0x3da98f7f	0.08279323
51	0x3b98176b	0.0046414635
52	0x3d8bb560	0.06821704
53	0xbd514051	-0.051086728
54	0x3b06b2ad	0.0020553276
55	0xbcd5c3ae	-0.026094284
56	0x3bde7b8c	0.0067896303
57	0x3c1ef80a	0.009702692
58	0x3d96f85c	0.073715895
59	0xbd5a9a6b	-0.05336992
60	0xbda8d213	-0.082431935
61	0xbc3c4e7e	-0.011493323
62	0xbdbde2d0	-0.09271777
63	0x3daa7991	0.08323968
64	0xbb93860c	-0.0045020636
65	0xbb663567	-0.0035127045
66	0xbce41aee	-0.027844872
67	0xb9f6344d	-0.00046959743
68	0xbb91285a	-0.004429859
69	0x3d4fdd2d	0.05074804
70	0xbd8275c4	-0.06370118
71	0x3d6dca05	0.05805399
72	0x3d8ed5e7	0.069743924
73	0xbb6e2a48	-0.003634112
74	0x3c499559	0.012303674
75	0xbd49c8d7	-0.0492638
76	0x3c78a06f	0.015174969
77	0xbc65b92e	-0.014021201
78	0x3cf833ca	0.030298132
79	0xbdb5cd7c	-0.08877084
80	0xbd7e3f48	-0.06207207
81	0xbd98b1df	-0.07455801
82	0x3d632753	0.055457424
83	0x3d9b6c53	0.075890206
84	0x3cbf6146	0.023361813
85	0xbd84a6e9	-0.06477148
86	0xbd553e83	-0.05206157
87	0xbd7fe921	-0.06247819
88	0x3d6893f2	0.056781717
89	0x3cd08e25	0.025458405
90	0x3dbdba9e	0.0926411
91	0x3cfa75fe	0.030573841
92	0x3d8d1b28	0.06889945
93	0xbb8d30d9	-0.0043088016
94	0x3c0dab7f	0.008646845
95	0xbd6e5a6c	-0.0581917
96	0x3ca453c8	0.020059481
97	0xbd3142ab	-0.04327647
98	0x3dbe0d63	0.09279897
99	0x3dbe71cd	0.092990495
100	0xbd23fc8b	-0.040035766
101	0x3d17ef27	0.037093308
102	0xbd3278d1	-0.04357225
103	0xbda82eaf	-0.08212029
104	0x3d1ce252	0.038301773
105	0x3c0ae0b3	0.008476424
106	0xbc697c59	-0.014250838
107	0xbcdca613	-0.02693466
108	0x3db038d0	0.08604586
109	0xbc841ac7	-0.01612605
110	0xbd96420d	-0.07336817
111	0x3da04af6	0.07826798
112	0xbd81562f	-0.06315266
113	0xbda54f8c	-0.08071813
114	0xbdbcdb3b	-0.092215024
115	0xbc27da46	-0.010244912
116	0xbdb67111	-0.089082845
117	0x3bf838df	0.007575139
118	0x3d3a9e52	0.045561142
119	0xbdb0336d	-0.08603559
120	0x3d2759bb	0.040857058
121	0xbdd96ffe	-0.10617064
122	0x3d0f3172	0.034959264
123	0xbc69c92b	-0.014269154
124	0xbd34309a	-0.043991663
125	0xbd929046	-0.07156424
126	0xbdbaac42	-0.09114887
127	0xbd3a4aa1	-0.045481328
128	0xbdc485e8	-0.09595853
129	0xbdd2312b	-0.10263284
130	0x3d6727f3	0.056434583
131	0xbd89e221	-0.06732584
132	0x3d08277c	0.03324078
133	0x3b97f032	0.004636788
134	0xbd14d17a	-0.036332585
135	0xbd84b1c6	-0.0647922
136	0x3bc093e1	0.0058770035
137	0xbdd5a7be	-0.10432385
138	0x3d8145da	0.06312151
139	0x3cd51ff0	0.026016206
140	0x3ca0a0bc	0.019607894
141	0xbc298f46	-0.0103491
142	0xbd91ac0f	-0.07112896
143	0x3dc02bf5	0.09383384
144	0x3dbf3dcb	0.09337958
145	0x3d8b9f39	0.06817479
146	0x3b807e55	0.00392131
147	0xbd8b9b80	-0.06816769
148	0xbd30fb6b	-0.04320852
149	0xbdc0adf0	-0.09408176
150	0x398a4730	0.0002637445
151	0x3cfa4127	0.030548645
152	0xbdcc7740	-0.09983683
153	0x3d4611bc	0.048356757
154	0x3d4730d4	0.04863055
155	0xbd8b7302	-0.068090454
156	0xbda3f692	-0.08006014
157	0xbbb41871	-0.0054960777
158	0x3d5688eb	0.05237667
159	0x3d1f23d5	0.03885253
160	0xbcf2a7b6	-0.029620986
161	0x3d65309f	0.05595457
162	0xbce0e900	-0.027454853
163	0x3cc20ca7	0.023687674
164	0xbda294b4	-0.07938519
165	0xbd173585	-0.036916275
166	0xbd1b28bc	-0.037880644
167	0x3db414ea	0.087930515
168	0x3d03b5b6	0.032155715
169	0xbdbd5451	-0.09244598
170	0x3d3de40e	0.046360068
171	0xbd562b0d	-0.05228715
172	0xbd1529ec	-0.036416933
173	0xbcefdc17	-0.029279752
174	0x3cbb1dd7	0.022841377
175	0xbd17809c	-0.036987886
176	0xbd93cd5d	-0.07216904
177	0xbd2e38c9	-0.042534623
178	0xbde02ad4	-0.10945669
179	0xbd1726f9	-0.0369024
180	0x3dc7bdb1	0.09752978
181	0x3dcd1a05	0.100147285
182	0xbd8916a9	-0.06693775
183	0xbd328b03	-0.043589603
184	0xbd8538ba	-0.0650496
185	0x3dc7c634	0.09754601
186	0xbd0fe01c	-0.035125837
187	0x3ce4dc51	0.027937086
188	0xbb4a0502	-0.0030825739
189	0x3ccc2b06	0.024922859
190	0x3dcfc07f	0.101441376
191	0xbd2df4a3	-0.042469632
192	0x3ddc2ec2	0.10751106
193	0xbcdd1155	-0.026985804
194	0x3b095d0b	0.002096
195	0x3d1514a5	0.03639664
196	0xbd027d9d	-0.031858075
197	0x3dc42ce5	0.095788755
198	0xbd86ca65	-0.065815724
199	0x3cdf1ac0	0.027234435
200	0x3dbf13a0	0.09329915
201	0x3dacb594	0.08433071
202	0x3d5cea8d	0.053934623
203	0x3d9d813f	0.07690667
204	0xbc959295	-0.018258372
205	0xbd20fa13	-0.03930099
206	0x3d381ce7	0.04494944
207	0x3980ee07	0.00024591407
208	0xbd0004a6	-0.031254433
209	0x3d097053	0.033554386
210	0xbd70f312	-0.05882556
211	0xbd8a7e38	-0.067623556
212	0xbd0c0337	-0.034182753
213	0x3b93032b	0.0044864616
214	0xbd87bb1c	-0.06627485
215	0x3d8b43de	0.06800054
216	0xbd7913eb	-0.06081001
217	0x3d44d75d	0.04805695
218	0xbd77b99d	-0.06047975
219	0x3dbc7d53	0.09203591
220	0x3c116d10	0.0088761
221	0xbdaa187d	-0.08305452
222	0xbd915001	-0.07095338
223	0xbda6534b	-0.081213556
224	0xbce8ca39	-0.02841674
225	0x3cf53f2c	0.02993735
226	0xbda97129	-0.08273537
227	0xbbda0a45	-0.0066540563
228	0xbd97605d	-0.07391427
229	0x3d950961	0.072771795
230	0x3dc84c05	0.097801246
231	0xbda5c5f8	-0.080944
232	0xbcea101d	-0.028572137
233	0xbd07eb4b	-0.033183377
234	0x3dac490b	0.08412369
235	0xbdcf09d0	-0.101092935
236	0x3dd44a25	0.103657044
237	0x3dced8ee	0.1009997
238	0x3d82e2eb	0.063909374
239	0xbce7b046	-0.028282296
240	0x3d8348da	0.0641038
241	0x3d8db7b3	0.069198035
242	0x3d1570da	0.036484577
243	0xbb4526c0	-0.0030082911
244	0x3d8ce0e9	0.06878836
245	0xbc8a84d5	-0.016909042
246	0xbccb8cba	-0.024847377
247	0xbd07210a	-0.032990493
248	0xbd841ec1	-0.06451178
249	0x3ca8c4f6	0.02060173
250	0xbd6c29f1	-0.057657186
251	0xbd21a3cc	-0.03946285
252	0x3d125d73	0.03573365
253	0xbd3c3693	-0.045950484
254	0x3dd4f960	0.10399127
255	0x3c0ccd29	0.008593836

feauture_layer.0.bias f4 [128]
0	0xbca85599	-0.020548629
1	0xbdc92c59	-0.09822912
2	0xbdc2ca6c	-0.09511265
3	0x3d9b2b13	0.07576575
4	0xbdbbb20c	-0.09164819
5	0x3d945047	0.07241874
6	0xbd88a552	-0.06672157
7	0xbc16299b	-0.009165193
8	0xbdafe385	-0.08588318
9	0xbd8544e3	-0.0650728
10	0xbc1d890d	-0.009615195
11	0x3bbf74a1	0.0058427607
12	0x3db57a70	0.08861244
13	0x3d4cc355	0.04999097
14	0xbcc96d06	-0.02458812
15	0x3dbc9b94	0.09209362
16	0xbdc17866	-0.09446792
17	0xbd51facf	-0.05126458
18	0x3dc89fe0	0.09796119
19	0xba8b0584	-0.0010606502
20	0x3dd63b5a	0.10460539
21	0x3c5ae6b9	0.013360673
22	0x3cbcaad3	0.023030674
23	0xbd690730	-0.05689162
24	0x3d5d0005	0.053955097
25	0xbc0707db	-0.008241619
26	0xbd49416b	-0.049134653
27	0xbce56370	-0.028001517
28	0xbdb70ecd	-0.0893837
29	0x3d230e6c	0.039808676
30	0x3d72f927	0.05931964
31	0xbd7036e2	-0.05864609
32	0x3d9512bb	0.07278963
33	0x3db57a12	0.08861174
34	0xbd0f72de	-0.035021655
35	0xbd18a37f	-0.037265297
36	0x3c8f41aa	0.017487366
37	0x3c59c21b	0.013290907
38	0xbd68be77	-0.056822266
39	0xbd739673	-0.05946965
40	0x3da1b7a2	0.07896353
41	0xbd1a0571	-0.037602846
42	0x3d7954b8	0.06087181
43	0x3db48ad5	0.088155426
44	0xbcefa9c6	-0.029255759
45	0xbd9a13b0	-0.07523286
46	0x3d8b08f9	0.06788821
47	0xbce1f7b5	-0.027583936
48	0xbcaadb1b	-0.02085643
49	0xbd9921a4	-0.074771196
50	0xbdb17992	-0.08665766
51	0x3c356cf1	0.011073337
52	0x3d79352a	0.060841717
53	0xbae208d7	-0.0017245066
54	0x3d8ad9d2	0.06779827
55	0x3c3887de	0.011262862
56	0xbdb08d14	-0.086206585
57	0x3d43ddd4	0.047818974
58	0x3d9e4611	0.07728208
59	0x3d1346c0	0.035956144
60	0x3d008bab	0.031383198
61	0x3d10e7a1	0.03537715
62	0xbd2b8288	-0.04187253
63	0x3db3dbed	0.08782182
64	0x3dc70364	0.097174436
65	0x3db7677f	0.08955287
66	0xbd98bcef	-0.07457911
67	0xbd94fb97	-0.072745495
68	0x3d359f70	0.044341505
69	0xbd866de4	-0.06563929
70	0x3d1586c8	0.03650549
71	0xbdd30ff7	-0.103057794
72	0xbd565682	-0.052328594
73	0xbd8f35f2	-0.06992711
74	0x3d245cf3	0.040127706
75	0xbd3be7d1	-0.045875374
76	0xbd1afe88	-0.037840396
77	0xbdaf44f8	-0.085580766
78	0xbd415cfa	-0.04720781
79	0x3bccde9d	0.0062521235
80	0x3c517bad	0.012785834
81	0x3d179afa	0.03701303
82	0x3dd0444c	0.101692766
83	0xbd3330b4	-0.04374762
84	0xbdc24256	-0.09485309
85	0xbdbe1bbb	-0.09282633
86	0x3d7d9a61	0.061914805
87	0xbd6ea7b6	-0.05826541
88	0x3d8411f2	0.06448735
89	0xbda8c6d0	-0.082410455
90	0x3cbf2878	0.023334727
91	0xbd5b630e	-0.053561263
92	0xbbde8b6d	-0.006791523
93	0x3cedd0c0	0.029030204
94	0xbd366ab4	-0.044535354
95	0xbc6dc0e7	-0.0145113235
96	0x3d4280ba	0.047486044
97	0x3d54dac7	0.051966455
98	0x3dc5cf50	0.09658682
99	0x3d9a3792	0.075301304
100	0xbd215b70	-0.039393842
101	0xbd9ff59e	-0.0781052
102	0x3bd9c63c	0.006645946
103	0x3d73f8c0	0.0595634
104	0x3d7e2dcc	0.062055394
105	0xbd64f934	-0.05590172
106	0xbd1a3cc8	-0.03765562
107	0x3da8e3f1	0.082466014
108	0x3cd6f7e3	0.026241248
109	0xbd844cd1	-0.06459964
110	0x3dac81c4	0.08423188
111	0x3d9e1d84	0.077204734
112	0x3cc30c77	0.023809655
113	0x3cdc57ea	0.02689739
114	0x3da55be0	0.080741644
115	0x3c4a1aed	0.012335521
116	0x3d5cc9d3	0.053903412
117	0x3b4ecb2f	0.0031554212
118	0x3d6bf346	0.05760505
119	0xbd9bc10f	-0.076051824
120	0x3dc7e2c1	0.09760047
121	0x3dbdd90d	0.09269915
122	0xbc5372de	-0.012905804
123	0x3d86a9d8	0.06575364
124	0x3af15987	0.0018413522
125	0xbdbc421f	-0.09192299
126	0x3c5471c0	0.012966573
127	0x3d455713	0.048178744

feauture_layer.2.weight f4 [128, 128]
0	0xbcf06577	-0.029345257
1	0xbba7e272	-0.00512343
2	0x3da625a2	0.08112647
3	0xbda10ee4	-0.07864168
4	0xbd1fdcb0	-0.039028823
5	0xbdb8b678	-0.09019178
6	0xbd64deb6	-0.055876456
7	0xbda66815	-0.08125321
8	0xbda74685	-0.081677474
9	0x3d0fb189	0.03508142
10	0xbcc48ff6	-0.023994427
11	0x3d64287d	0.055702675
12	0x3c58ca40	0.013231814
13	0x3c277adc	0.010222163
14	0xbd1386b7	-0.036017146
15	0x3cbbbf32	0.022918317
16	0xbb9603d3	-0.0045780926
17	0x3b9177f0	0.0044393465
18	0xbc635ba8	-0.013876833
19	0xbd8a813d	-0.067629315
20	0xbd98d28e	-0.07462035
21	0xbd54e0f1	-0.051972333
22	0xbd9b28f0	-0.075761676
23	0xbc6269a8	-0.013819136
24	0xbd46c0f6	-0.048523866
25	0x3d1d1b3f	0.038356062
26	0x3dacd90b	0.08439835
27	0x3d7c2ccb	0.061566155
28	0x3d89d937	0.067308836
29	0xbc517a95	-0.0127855735
30	0x3db46be0	0.08809638
31	0xbd88cd9a	-0.066798404
32	0xbd1e8c38	-0.03870794
33	0x3d895f90	0.0670768
34	0xbd254036	-0.04034444
35	0xbd0e5905	-0.034752864
36	0xbc180f3d	-0.009280977
37	0x3ceb1590	0.028696805
38	0x3c977e69	0.018492894
39	0xbd9f88b7	-0.07789748
40	0xbc1dafe9	-0.00962446
41	0x3d9aad9f	0.07552647
42	0xbd19d15a	-0.03755317
43	0x3d8c2fa4	0.06845024
44	0x3cb60e3b	0.022223582
45	0xbcffe252	-0.031235848
46	0xbcf4bbcf	-0.02987471
47	0xbd965523	-0.07340457
48	0xbc06e898	-0.008234166
49	0xbccff214	-0.025383987
50	0x3cb32808	0.021869674
51	0xbc3121e7	-0.010811306
52	0x3d811fe5	0.063049115
53	0xbc72bb9a	-0.0148152355
54	0xbd0ce1cf	-0.034395035
55	0x3d79b1d9	0.060960624
56	0x3c9f52d5	0.019448677
57	0xbcf44f2d	-0.02982291
58	0x3d7440cb	0.059632104
59	0x3c880586	0.016604196
60	0xbd018a42	-0.031625994
61	0x3d915527	0.0709632
62	0xbd2ac013	-0.041687082
63	0xbda5d8fe	-0.080980286
64	0x3c823f4c	0.015899323
65	0x3cd8f005	0.026481638
66	0x3d6ade9f	0.057341214
67	0x3d35227f	0.04422235
68	0xbdb37211	-0.08761991
69	0x3d4206bd	0.047369707
70	0x3d4e4454	0.05035813
71	0xbb11a767	-0.0022225024
72	0xbd141546	-0.0361531
73	0x3dab81a1	0.08374334
74	0xbb057a28	-0.0020367
75	0x3cd60029	0.026123123
76	0xbd6aa560	-0.05728662
77	0x3b4cd01a	0.0031251968
78	0x3d2d19e3	0.042261016
79	0x3d09b1c3	0.033616792
80	0xbd619f8e	-0.055083804
81	0xbd8f670e	-0.07002078
82	0x3d7ffe07	0.06249812
83	0x3cba4029	0.022735672
84	0x3c87e343	0.016587859
85	0xbcb81f6e	-0.022475924
86	0x3d268d2e	0.040661983
87	0xbc3a189b	-0.011358405
88	0x3d020bf6	0.031749688
89	0xbd7ecb7a	-0.06220577
90	0x3d500b86	0.05079224
91	0xbd5f08b9	-0.054451678
92	0xbdaaf3d0	-0.08347285
93	0xbd971014	-0.073761135
94	0xbd56b352	-0.052417107
95	0xbd56c55f	-0.05243432
96	0xbd75098d	-0.05982356
97	0x3d359b86	0.04433777
98	0xbda7908e	-0.081818685
99	0x3d0af605	0.03392603
100	0xbd99fc61	-0.075188406
101	0xbdaf5860	-0.08561778
102	0x3c0ef588	0.008725531
103	0xbd5d300b	-0.054000895
104	0x3d838995	0.06422726
105	0xbd47cdf6	-0.048780404
106	0x3cf385b3	0.029726839
107	0x3d3bf1d5	0.045884926
108	0xbd882315	-0.06647316
109	0xbd92099f	-0.07130741
110	0x3d34e85d	0.04416691
111	0xbac25778	-0.0014827093
112	0x3d9463a3	0.07245567
113	0xbca5d73a	-0.02024423
114	0x3dae5808	0.085128844
115	0xbda13dcb	-0.07873114
116	0xbd6e800e	-0.05822759
117	0x3b0cdc31	0.002149355
118	0xb9a72a65	-0.0003188431
119	0x3bddf614	0.0067737196
120	0xbd9bd6ad	-0.076093055
121	0xbd81e955	-0.06343333
122	0x3d078238	0.03308317
123	0x3d59ad24	0.053143635
124	0x3c8e293a	0.017353643
125	0x3d05dbd9	0.032680366
126	0xbadb633b	-0.0016737947
127	0xbd9ce35b	-0.07660552
128	0xbc8fd7d9	-0.017558979
129	0xbd04e8ed	-0.032448698
130	0x3d63d95d	0.055627216
131	0x3d8fcde8	0.070216954
132	0x3d109056	0.0352939
133	0x3c4594df	0.012059419
134	0xbcd578f8	-0.026058659
135	0x3c770b7c	0.015078422
136	0x3cc8623d	0.024460906
137	0x3c61b50a	0.013776073
138	0xbd8acae5	-0.0677698
139	0xbcc17ccb	-0.023619076
140	0x3d27102e	0.040786915
141	0xbd481c60	-0.048855186
142	0xbd8e7d35	-0.06957475
143	0x3d98c64b	0.074596964
144	0x3d8d305b	0.06893989
145	0x3dbea4e1	0.09308792
146	0x3da23a3d	0.07921264
147	0x3ca84927	0.020542694
148	0xbc809f7d	-0.01570105
149	0x3d297bbd	0.04137777
150	0x3ce016c5	0.027354607
151	0xbd8938c8	-0.06700283
152	0x3d9e89d7	0.077411346
153	0xbd753a16	-0.05986985
154	0x3d8540ee	0.06506525
155	0xbd8882e7	-0.06665593
156	0x3cfce035	0.030868629
157	0xbd91cd9d	-0.07119296
158	0x3cd88df8	0.026434883
159	0x3c94635b	0.018113783
160	0x3dbf6c32	0.093468085
161	0xbc6941f6	-0.014236918
162	0xbd3bd3b5	-0.045856196
163	0x3da47c58	0.08031529
164	0x3d7d28e1	0.061806563
165	0x3d8eee7f	0.06979083
166	0x3cc328a1	0.023823084
167	0x3d8ce5f6	0.06879799
168	0x3b360d3a	0.002777888
169	0x3c342dcb	0.010997246
170	0xbdaabb03	-0.08336451
171	0x3d83b568	0.06431085
172	0x3da0661e	0.07831977
173	0x3c09fd11	0.008422152
174	0x3d5ea6d6	0.054358326
175	0x3d1f4600	0.038885117
176	0xbdb3744d	-0.08762417
177	0xbcb2e780	-0.021838903
178	0x3d4f18cd	0.05056076
179	0x3d9d2945	0.07673887
180	0x3c95dcb2	0.018293712
181	0x3d2218e1	0.039574508
182	0xbbc9e14a	-0.0061608898
183	0xbd857873	-0.065171145
184	0xbc83a6cf	-0.016070751
185	0x3d28043e	0.04101967
186	0x3c714da3	0.014727983
187	0xbc0ae555	-0.008477529
188	0xbd0845d7	-0.03326973
189	0x3d8a7dda	0.067622855
190	0x3b114be1	0.0022170471
191	0x3d2b9654	0.04189141
192	0x3d442ec2	0.047896154
193	0x3d08a5c4	0.03336121
194	0x3d08fa0e	0.033441596
195	0x3d53abef	0.05167764
196	0xbd38ff5c	-0.045165405
197	0x3d9f62cb	0.07782515
198	0x3d542802	0.051795967
199	0xbce1afb0	-0.027549595
200	0x3b51cd70	0.003201332
201	0xbd13e274	-0.036104634
202	0xbdc15302	-0.094396606
203	0xbc9cf2e1	-0.019158782
204	0xbd8a7839	-0.06761212
205	0xbc68749d	-0.014187959
206	0xbd9fad06	-0.077966735
207	0x3d714a7f	0.058908936
208	0x3cb14f09	0.021644132
209	0xbd67bf0c	-0.05657868
210	0x3d1b1513	0.037861895
211	0x3d6126a4	0.05496849
212	0x3d7c8482	0.061649807
213	0x3d727fa6	0.059203766
214	0xbd8b2d5b	-0.0679576
215	0xbcc87c68	-0.024473384
216	0x3d003c1b	0.03130732
217	0x3dc4ca78	0.0960893
218	0x3d38aa22	0.045084126
219	0xbd92338f	-0.0713874
220	0x3daa7342	0.08322765
221	0x3dae86e5	0.08521823
222	0x3da98605	0.08277515
223	0xbd60d9ea	-0.05489532
224	0x3d8398cd	0.06425629
225	0x3d98953c	0.07450339
226	0x3da18cfb	0.07888218
227	0x3dc1b2d5	0.09457938
228	0x3c22c7cf	0.009935333
229	0xbd264f42	-0.04060293
230	0x3d76a881	0.06021929
231	0xbd7cb5bc	-0.061696753
232	0x3d6f41b6	0.058412276
233	0x3c03c0b0	0.008041546
234	0x3db73299	0.089451976
235	0xbb0e70d7	-0.0021734738
236	0x3d661115	0.056168634
237	0xbc10070e	-0.0087907445
238	0xbd5feac8	-0.054667264
239	0x3cc12714	0.023578204
240	0xbcf9f2a7	-0.030511213
241	0x3cbaaf40	0.022788644
242	0xbd7e465b	-0.062078815
243	0x3d2acf8e	0.041701846
244	0xbdb01341	-0.085974224
245	0x3c0121d7	0.007881603
246	0x3d6b89c1	0.05750442
247	0x3d7968db	0.060891014
248	0x3cc824e7	0.024431659
249	0x3db997f9	0.090621896
250	0x3d8a44d5	0.0675141
251	0xbd64b0c3	-0.055832636
252	0x3db9bbb2	0.09069003
253	0xbd8d3942	-0.06895687
254	0xbd77cec1	-0.06049991
255	0x3d83af86	0.06429963

feauture_layer.2.bias f4 [128]
0	0xbd87b371	-0.066260226
1	0x3d802401	0.06256867
2	0xbd923737	-0.07139438
3	0xbd3b0264	-0.045656577
4	0xbcd2c087	-0.02572657
5	0xbda76962	-0.08174397
6	0xbd15b3a1	-0.03654826
7	0x39931cce	0.00028059486
8	0xbd33d26c	-0.043901846
9	0x3dac7524	0.0842078
10	0xbdb030a6	-0.08603029
11	0xbd8a9c1c	-0.06768057
12	0x3d9b2163	0.075747274
13	0xbcac926e	-0.021065917
14	0x3d34fda0	0.04418719
15	0x3cd51708	0.026011959
16	0x3b37389d	0.0027957328
17	0x3dad0f5f	0.084501974
18	0x3db9e3e8	0.09076673
19	0xbcfde2b3	-0.030991888
20	0xbb9a8cff	-0.004716515
21	0xbdbaf5a0	-0.091288805
22	0x3d53b1cb	0.05168323
23	0x3d5bee12	0.05369384
24	0xbd7be4f9	-0.061497662
25	0xbc887c47	-0.016660823
26	0xbcbabce3	-0.022795146
27	0xbd9d64a3	-0.076852106
28	0x3cd530e0	0.026024282
29	0xbd9a3adb	-0.07530757
30	0xbd9eafd6	-0.07748382
31	0xbcb621ff	-0.022233007
32	0x3cc1b282	0.02364469
33	0xbd545668	-0.051840216
34	0xbd96ffb8	-0.07372993
35	0x3da56bcb	0.080772005
36	0xbb4d714c	-0.0031348048
37	0x3da510aa	0.08059819
38	0x3b11d97d	0.0022254877
39	0x3d496c67	0.049175646
40	0x3d608f43	0.054824125
41	0x3d9512fd	0.07279012
42	0x3db365b1	0.087596305
43	0x3cebe8bd	0.028797502
44	0xbd55c5fd	-0.05219077
45	0xbcc24c48	-0.023718014
46	0x3d2a28cf	0.041542824
47	0x3da68f20	0.08132768
48	0xbd8297c9	-0.06376607
49	0xbd4bd422	-0.049762852
50	0x3d163e64	0.036680594
51	0xbda9a2a7	-0.082829766
52	0x3d8f3532	0.06992568
53	0xbc54843b	-0.012970979
54	0x3d8b9204	0.0681496
55	0xbc6da369	-0.014504292
56	0x3c8859f3	0.016644454
57	0xbd307e12	-0.04308898
58	0x3d9b5032	0.075836554
59	0x3d0458b7	0.032311168
60	0xbcaf3c78	-0.021391138
61	0x3d752b15	0.05985554
62	0x3b897c5d	0.0041957335
63	0x3b684f31	0.0035447592
64	0xbdb499b8	-0.08818382
65	0xbd928be8	-0.07155591
66	0xbd363414	-0.04448326
67	0x3c9a5bb3	0.018842554
68	0x3d1cc7d5	0.038276512
69	0xbb615782	-0.0034384434
70	0xbda93a87	-0.08263116
71	0x3d881bab	0.06645902
72	0x3d4422ea	0.04788486
73	0xbcc4b57d	-0.024012322
74	0xbcf0885b	-0.029361894
75	0xbd06af8e	-0.032882266
76	0xbccf3bc8	-0.02529706
77	0x3d84f12e	0.06491314
78	0xbd2dfca5	-0.04247727
79	0x3d5e94a6	0.05434098
80	0xbcfbdd65	-0.030745218
81	0x3d990e78	0.07473463
82	0xbda478e4	-0.080308706
83	0xbb02cbd8	-0.0019957926
84	0x3d60a3bd	0.054843653
85	0x3d9d42e9	0.07678778
86	0xbca3d1f8	-0.019997582
87	0x3a99a08e	0.0011720823
88	0x3d795a53	0.060877156
89	0xbd722f40	-0.059127092
90	0xbca66b8d	-0.020314956
91	0x3dadefef	0.08493029
92	0x3d160f00	0.0366354
93	0x3c347958	0.011015259
94	0x3cc597c9	0.024120228
95	0x3d1b7537	0.03795358
96	0x3cad4b02	0.02115393
97	0x3b7dc2ed	0.003872092
98	0x3dbf917f	0.09353923
99	0xbd6182bd	-0.055056322
100	0xbd87d50c	-0.06632432
101	0x3d940f48	0.07229477
102	0xbd2595be	-0.04042601
103	0x3d7e46e0	0.06207931
104	0xbd0f88b9	-0.0350425
105	0x3d958d72	0.07302369
106	0x3c021e1c	0.007941749
107	0xbda1c9f5	-0.07899848
108	0x3d9184b8	0.07105392
109	0xbca13880	-0.019680262
110	0xbdb612a6	-0.08890276
111	0xbd495266	-0.049150847
112	0x3c73350b	0.014844189
113	0x3d72c639	0.05927107
114	0x3da34cf2	0.079736605
115	0x3d2ab646	0.041677736
116	0x3d21e4ba	0.03952477
117	0xbdab9088	-0.083771765
118	0xbd9e5824	-0.07731655
119	0x3b813a1f	0.003943696
120	0x3c4ca845	0.01249129
121	0xbd610774	-0.05493875
122	0xbbe5fc82	-0.0070186267
123	0xbd83bc4d	-0.064324
124	0x3d97134f	0.0737673
125	0xbcb83649	-0.022486823
126	0x3d2d20e5	0.0422677
127	0x3cc03e0d	0.023467088

value_stream.0.weight f4 [128, 128]
0	0xbd6cccd3	-0.057812523
1	0x3d9f4d2b	0.077783905
2	0x3d27ce30	0.04096812
3	0x3c76c25f	0.01506099
4	0x3d08e053	0.033417057
5	0xbd81b3a3	-0.06333091
6	0xbc1f87fa	-0.009737009
7	0xbd8404df	-0.064462416
8	0x3c90217a	0.017594088
9	0x3d749118	0.059708685
10	0xbda173b4	-0.07883397
11	0x3ce6c97f	0.028172253
12	0x3d3e21dc	0.04641901
13	0xbd9d9a80	-0.07695484
14	0x3d60a293	0.054842543
15	0xbd46d857	-0.04854616
16	0xbc8657fc	-0.016399376
17	0xbc69c7c6	-0.014268821
18	0xbd50b87c	-0.050957188
19	0xbd57166a	-0.05251161
20	0x3d352696	0.04422625
21	0xbd82e033	-0.06390419
22	0xbdb65929	-0.08903725
23	0xbda953f6	-0.082679674
24	0x3c6efd22	0.014586719
25	0x3d548cb6	0.051892005
26	0xbcd76203	-0.026291853
27	0xbcde1415	-0.027109185
28	0x3ca5881d	0.020206505
29	0x3db1e8a9	0.086869545
30	0x3c82ff47	0.015990866
31	0xb917523b	-0.00014431115
32	0x3da48562	0.08033253
33	0xbd85415f	-0.06506609
34	0x3b2299ce	0.0024810913
35	0xbd91aa12	-0.071125165
36	0xbc7bb4e0	-0.015362948
37	0xbcec3df8	-0.028838143
38	0xbc028884	-0.007967118
39	0x3c816eaf	0.015799848
40	0xbc779a6c	-0.015112501
41	0x3d59b861	0.053154353
42	0xbd2761ee	-0.040864877
43	0xbbb6f731	-0.0055836667
44	0x3da57ed3	0.080808304
45	0x3be109f5	0.006867642
46	0xbd1861d5	-0.037202675
47	0xbd9e550b	-0.077310644
48	0x3c4e8df1	0.012607084
49	0x3da33001	0.079681404
50	0xbd2b9823	-0.041893136
51	0x3d90f705	0.07078365
52	0xbc7b36ae	-0.015332861
53	0x3c10da10	0.008841053
54	0xbcfb8d64	-0.030707069
55	0x3d6cd4a0	0.057819963
56	0x3d19f973	0.03759141
57	0x3d37dc75	0.04488798
58	0x3d9ba5d8	0.075999916
59	0xbcf17bd5	-0.029477993
60	0xbc9476ab	-0.018122992
61	0xbc3a3fb5	-0.011367728
62	0x3c35c893	0.011095184
63	0xbd94745e	-0.07248758
64	0xbd6f6c15	-0.058452684
65	0xbd698d2b	-0.057019394
66	0x3da8d697	0.08244055
67	0xbda87ac9	-0.082265444
68	0xbdb0e693	-0.086377285
69	0xbcf98e5b	-0.030463388
70	0xbd0a5c09	-0.033779178
71	0x3cb4460b	0.022006055
72	0xbd7a8dd0	-0.0611704
73	0xbd64b587	-0.05583718
74	0x3d32a85c	0.04361759
75	0xbd8e7cc2	-0.069573894
76	0xbd4c7314	-0.049914435
77	0xbcf6243c	-0.030046575
78	0x3cb27869	0.021785932
79	0xbd52c673	-0.051458787
80	0xbd503ebf	-0.05084109
81	0xbda42648	-0.08015114
82	0x3d1e7955	0.03868993
83	0xbdacbe86	-0.08434777
84	0xbd8b3427	-0.06797057
85	0xbb065abb	-0.0020500857
86	0x3d79d429	0.060993347
87	0x3d9cbab5	0.07652799
88	0xbd67699a	-0.056497194
89	0x3d9944c0	0.07483816
90	0x3d7d22d3	0.06180079
91	0x3c322a0d	0.0108742835
92	0x3daa7700	0.08323479
93	0xbdb4559c	-0.08805391
94	0xbd662824	-0.056190625
95	0x3d87427d	0.066044785
96	0x3d891880	0.06694126
97	0xbd7ed454	-0.06221421
98	0xbc1bf578	-0.0095189735
99	0x3ae41c84	0.0017403518
100	0x3ce8c7b9	0.028415548
101	0x3c8b312b	0.016991219
102	0x3b3cc2dc	0.0028802669
103	0x3afe58e1	0.001940515
104	0xbd4ce238	-0.050020427
105	0xbd917f80	-0.07104397
106	0x3c9c6a08	0.019093528
107	0x3ce4c6c0	0.027926803
108	0xbd67269c	-0.056433305
109	0x3d9e2b57	0.0772311
110	0x3d974723	0.07386615
111	0xbd49011e	-0.04907333
112	0xbc3a1011	-0.01135637
113	0xbc9617ae	-0.018321838
114	0x3d4406e5	0.047858138
115	0x3da9061c	0.082531184
116	0x3c2082fd	0.009796855
117	0x3d8c01b4	0.06836262
118	0xbdb9a543	-0.09064724
119	0xbda30d5c	-0.079615325
120	0xbd4ee5c0	-0.050512075
121	0x3ce977f0	0.028499573
122	0x3d9265f0	0.07148349
123	0x3d9d6e12	0.0768701
124	0xbd181c6e	-0.037136488
125	0xbd4fd1ad	-0.05073707
126	0x3c00f05d	0.007869807
127	0x3c81a4a4	0.015825577
128	0xbd76c886	-0.060249828
129	0xbd12239f	-0.035678502
130	0x3cad3fa6	0.021148514
131	0xbbaa2525	-0.0051924163
132	0xbb549d80	-0.003244251
133	0xbd204ef9	-0.039137814
134	0x3c6bf8b3	0.014402556
135	0xbd35b054	-0.044357613
136	0x3d0518f0	0.032494485
137	0xbc2ea233	-0.0106587885
138	0xbd86fe60	-0.06591487
139	0xbcc8b0c4	-0.02449835
140	0xbd69d18a	-0.057084598
141	0x3cfee822	0.031116549
142	0x3caeeab9	0.021352159
143	0x3d5166d7	0.051123466
144	0xbc57a163	-0.013161036
145	0xbdbb887b	-0.09156891
146	0x3d7615ba	0.060079314
147	0x3b918d73	0.004441911
148	0x3a258ad7	0.0006314939
149	0x3da8b21c	0.08237097
150	0xba9cdf9c	-0.0011968496
151	0xbdafc2cf	-0.08582079
152	0xbc870172	-0.016480181
153	0xbc95ad1c	-0.018271022
154	0x3d9483d7	0.07251709
155	0x3bd5730d	0.0065139593
156	0xbdbc362e	-0.091900215
157	0x3d706f77	0.05870005
158	0xbd57e05d	-0.052704204
159	0xbd9ae378	-0.075629175
160	0xbd836101	-0.064149864
161	0x3d91290b	0.070879065
162	0xbd619bdf	-0.05508029
163	0xbc15e018	-0.009147666
164	0xbd954b45	-0.07289747
165	0x3d7ab68d	0.06120925
166	0x3c9adcf5	0.018904189
167	0xbd4f2513	-0.050572466
168	0xbd584483	-0.052799713
169	0xbd4d5db0	-0.050138175
170	0x3d615aa3	0.05501808
171	0x3d92ca9c	0.07167551
172	0xbd5c34ce	-0.053761296
173	0x3c672327	0.014107502
174	0x3d8c61dc	0.06854603
175	0x3d49d865	0.049278636
176	0x3d8dffa1	0.06933523
177	0x3d611c1f	0.05495846
178	0x3c2784ba	0.010224516
179	0xbd4e9929	-0.050439034
180	0x3c208661	0.009797663
181	0x3d9891b1	0.074496634
182	0xbccc9297	-0.024972243
183	0xbd99cf2b	-0.07510217
184	0x3c6ed4e9	0.014577129
185	0x3d9ab694	0.07554355
186	0xbc903b3c	-0.01760637
187	0x3ce39e98	0.027785584
188	0xbd170308	-0.036868125
189	0xbda6e3bc	-0.08148906
190	0x3d582f8e	0.052779727
191	0xbd6af7da	-0.057365276
192	0xbc0ca212	-0.008583562
193	0xbd6ef883	-0.058342468
194	0x3d8722b6	0.065984175
195	0xbd9a4232	-0.07532157
196	0x3cb0091b	0.021488717
197	0xbd9e3c1d	-0.077263094
198	0x3c101a65	0.008795355
199	0x3d886b30	0.066610694
200	0x3d71413e	0.05890011
201	0xbd9515d4	-0.07279554
202	0x3d69d809	0.057090793
203	0x3d8a3823	0.067489885
204	0xbd0c86f0	-0.034308374
205	0xbc9bddfc	-0.019026749
206	0x3cb3bd02	0.021940712
207	0x3d04b3b2	0.032397933
208	0x3d8449b1	0.06459368
209	0x3cad2d6a	0.02113982
210	0xbda0e5a1	-0.07856298
211	0x3c135be1	0.008994074
212	0xbd617eea	-0.055052675
213	0xbd0055c7	-0.031331804
214	0xbc936f39	-0.017997371
215	0xbc673f8c	-0.014114272
216	0xbc9d5bfe	-0.019208904
217	0x3b8d2ee6	0.0043085692
218	0x3d99a01f	0.07501244
219	0x3d8defbf	0.069304936
220	0x3d9d048b	0.07666882
221	0xbdb042b3	-0.08606472
222	0x3d8381bf	0.064212315
223	0xbc76656e	-0.015038831
224	0xbc5245f2	-0.012834059
225	0xbdab53c4	-0.083655864
226	0xbd008fbd	-0.03138708
227	0x3da31498	0.07962912
228	0xbd7e90a2	-0.06214965
229	0x3d81fef9	0.0634746
230	0xbd1e5e24	-0.038664
231	0x3c612a2b	0.013742964
232	0xbd71b23f	-0.05900788
233	0xbbf5ae64	-0.0074975956
234	0xbd0394cb	-0.032124322
235	0xbd9180bc	-0.07104632
236	0x3d56e393	0.052463125
237	0x3cb0567d	0.021525616
238	0x3d36f6e9	0.044669066
239	0xbc8ea319	-0.017411755
240	0x3d08c187	0.033387687
241	0xbd8a625c	-0.06757042
242	0x3d811691	0.06303132
243	0xbd680ac3	-0.05665089
244	0xbc9ec59f	-0.019381342
245	0xbd614996	-0.055001818
246	0xbd20a81d	-0.039222825
247	0xbc6b03d9	-0.014344179
248	0xbca765d3	-0.020434296
249	0x3cadfaab	0.021237692
250	0x3daa3704	0.08311275
251	0xbd059af2	-0.03261847
252	0x3da58376	0.08081715
253	0xbc907739	-0.017634975
254	0xbc47a38a	-0.012184987
255	0xbd7e9160	-0.06215036

value_stream.0.bias f4 [128]
0	0xbdad1b6f	-0.08452498
1	0xbc96b045	-0.018394599
2	0x3d672bbc	0.056438193
3	0xbd752ce6	-0.05985727
4	0xbd0c90d3	-0.034317803
5	0x3c66ec2c	0.014094394
6	0x3da5722f	0.080784194
7	0xbd1adac4	-0.037806287
8	0x3c3afcb1	0.011412785
9	0xbd383ae9	-0.044978056
10	0x3c62452d	0.013810438
11	0xbd483ff8	-0.04888913
12	0x3d8a7d18	0.06762141
13	0x3d7bd621	0.061483506
14	0xbd934498	-0.071908176
15	0xbc80807d	-0.015686268
16	0xbd490f8c	-0.049087092
17	0x3d3586c2	0.04431797
18	0x3b38d85e	0.0028205137
19	0x3d7f398b	0.062310737
20	0x3d52fa98	0.051508516
21	0xbb1f1ed7	-0.0024279857
22	0x3da739c4	0.08165315
23	0xbd0f0a31	-0.03492183
24	0x3ced819e	0.02899247
25	0x3d8b4d7f	0.068018906
26	0xbca23010	-0.019798309
27	0x3d8d3080	0.06894016
28	0x3d136432	0.035984226
29	0xbc845b55	-0.016156832
30	0x3d728999	0.059213255
31	0xbd8b78fe	-0.06810187
32	0xbc918819	-0.017765092
33	0xbcad98a1	-0.021190943
34	0xbc29506b	-0.010334115
35	0xbc42c1fd	-0.011887071
36	0x3d8ca799	0.06867904
37	0xbd8b9bb9	-0.06816811
38	0xbd5c47ab	-0.053779285
39	0xbd7c7948	-0.0616391
40	0x3d91461d	0.07093451
41	0xbd774b98	-0.060374826
42	0x3da8bbba	0.08238931
43	0x3cbface4	0.02339787
44	0x3ca90696	0.020633023
45	0xbc399a80	-0.01132834
46	0x3db96707	0.09052854
47	0x3d9cb19e	0.07651065
48	0x3d663200	0.056200027
49	0x3d9415c5	0.07230715
50	0xbc060a8a	-0.008181224
51	0x3d2991f8	0.041398972
52	0x3d6c2de3	0.05766095
53	0x3d891ec8	0.06695324
54	0x3d8f7b61	0.070059545
55	0x3da65fc5	0.08123735
56	0xbc3f466f	-0.0116745075
57	0xbd1ddebc	-0.038542494
58	0xbdaff976	-0.08592503
59	0xbcb48bcd	-0.022039318
60	0xbd1dede5	-0.038556952
61	0xbca0295c	-0.019550972
62	0xbda7d0c1	-0.081941135
63	0x3d79f3f6	0.061023675
64	0x3d623222	0.05522359
65	0xbca5b73d	-0.020228976
66	0xbd7adca9	-0.061245594
67	0x3c982d52	0.018576298
68	0x3d88deb5	0.06683103
69	0x3d8929c0	0.06697416
70	0xbcd44825	-0.025913307
71	0xbd8e0c8f	-0.06935989
72	0xbda05f74	-0.07830706
73	0x3d5f1d9b	0.054471593
74	0x3cace7e1	0.021106662
75	0xbd5264bb	-0.051365595
76	0xbdad2dca	-0.08455999
77	0x3da5aba2	0.08089377
78	0xbd539b6c	-0.051661894
79	0x3c31faa0	0.010862976
80	0x3d6e1550	0.058125794
81	0x3bede28b	0.007259672
82	0xbd2d3629	-0.04228798
83	0xbcca95df	-0.024729667
84	0x3ce52f61	0.027976694
85	0x3d7c6e4e	0.061628632
86	0xbdacbc71	-0.0843438
87	0xbd75fae7	-0.060053732
88	0xbd0b9af5	-0.034083325
89	0xbbe8ddd2	-0.007106521
90	0xbd359382	-0.044330128
91	0x3d4c16e7	0.04982653
92	0xbd1f08ed	-0.03882687
93	0x3ce942c0	0.028474212
94	0x3c9718eb	0.018444499
95	0x3d0c6081	0.03427172
96	0x3c96cefc	0.018409245
97	0x3d4356d5	0.04769023
98	0xbb6e7d70	-0.0036390685
99	0x3d9499cd	0.07255898
100	0x3d3cac7a	0.046062924
101	0x3d0929eb	0.03348724
102	0xbc6eaaa8	-0.014567055
103	0x3d6d0153	0.05786259
104	0x3d3b1e2e	0.04568308
105	0xbd3af0e9	-0.045639906
106	0xbd154cf6	-0.03645035
107	0x3cb41bc4	0.021985896
108	0xbce0287a	-0.02736305
109	0xbd9b36af	-0.075787894
110	0xbd9675d4	-0.07346693
111	0x3db1011a	0.08642788
112	0x3d9a25b5	0.07526723
113	0xbc6de73c	-0.014520463
114	0xbc615553	-0.013753253
115	0xbc9ee7f9	-0.019397723
116	0xbbcdf7b7	-0.0062856334
117	0x3cf81f92	0.030288491
118	0x3d8e8e53	0.0696074
119	0xbc7a5390	-0.015278712
120	0xbce98fc2	-0.028510932
121	0x3da16ae0	0.07881713
122	0xbd951e7e	-0.072812065
123	0xbda76a7c	-0.08174607
124	0xbc8c6fa0	-0.01714307
125	0x3d63accb	0.05558471
126	0xbc8587e3	-0.016300147
127	0x3b59c3e9	0.0033228344

value_stream.2.weight f4 [1, 128]
0	0xbc314a55	-0.010820945
1	0xbd929452	-0.07157196
2	0x3d662279	0.05618522
3	0x3d76283a	0.060096957
4	0x3d55a0c8	0.052155286
5	0x3d4bb13d	0.049729574
6	0xbda273cf	-0.07932245
7	0xbc921dac	-0.017836414
8	0xbd8aca87	-0.0677691
9	0xbd91779f	-0.07102894
10	0x3d495f96	0.049163423
11	0xbda9fed2	-0.08300556
12	0xbd486204	-0.0489216
13	0xbb0bb0c3	-0.0021315075
14	0x3b1fb565	0.0024369594
15	0xbd429380	-0.04750395
16	0xbd9ec813	-0.07753005
17	0x3d2ffaef	0.04296392
18	0xbccfc1d2	-0.025360975
19	0x3c8bfe23	0.017088955
20	0x3d24cac7	0.040232446
21	0x3cf645d4	0.030062594
22	0x3ceb88d6	0.028751772
23	0x3d9ff73f	0.0781083
24	0xbc7ee6d1	-0.015557961
25	0x3c0ce722	0.008600028
26	0xbbd51ca4	-0.0065036584
27	0x3d8f58cc	0.069993585
28	0xbd6b7491	-0.057484213
29	0xbd77ca88	-0.060495883
30	0x3dac048a	0.08399303
31	0xbd31823f	-0.043337103
32	0x3d13004c	0.035888955
33	0x3cf3db33	0.029767608
34	0xbcc71577	-0.024302227
35	0xbd4c4d5a	-0.049878456
36	0x3db2ddf9	0.08733744
37	0xbcd7efb9	-0.026359426
38	0xbd5df474	-0.054188207
39	0x3cc20779	0.023685204
40	0x3d9260ff	0.07147407
41	0x3b8f6811	0.0043764194
42	0xbda19c5a	-0.0789115
43	0xbdad9bb5	-0.084769644
44	0xbd76c541	-0.06024671
45	0x3cfdec70	0.030996531
46	0x3cee3072	0.029075835
47	0xbd37b506	-0.04485037
48	0x3da38430	0.07984197
49	0xbb91a1e8	-0.0044443496
50	0xbd5c5025	-0.05378737
51	0x3d74bdcf	0.059751328
52	0x3d90a997	0.07063597
53	0x3d936d7d	0.071986176
54	0xbdaad2bf	-0.08340978
55	0x3dabf630	0.08396566
56	0xbd79d79a	-0.06099663
57	0x3d4c43d4	0.049869373
58	0x3ba4068a	0.0050056623
59	0xbd9a8bd3	-0.075462006
60	0xbd51beb8	-0.051207274
61	0x3da31f7f	0.07964992
62	0x3c7cf696	0.01543965
63	0x3d98aa33	0.07454338
64	0x3bfcc9ee	0.0077145016
65	0x3d18d7b0	0.03731507
66	0xbd5e6704	-0.054297462
67	0x3d259df2	0.04043383
68	0x3d940140	0.07226801
69	0xbcb0b96f	-0.021572797
70	0x3d45af5c	0.04826294
71	0x3d8b2f84	0.06796172
72	0x3d76d7f5	0.060264546
73	0xbaa42659	-0.0012523636
74	0x3d88d336	0.0668091
75	0x3b47c293	0.0030480966
76	0xbd584204	-0.052797332
77	0x3d213bcf	0.03936368
78	0xbb3ba0ee	-0.0028629857
79	0xbd3cac6e	-0.04606288
80	0xbb5606bb	-0.003265782
81	0x3a8b4bcb	0.0010627446
82	0x3c155e87	0.009116775
83	0x3d1dc7eb	0.038520735
84	0x3da140af	0.078736655
85	0xbc01f387	-0.007931597
86	0x3bfe137a	0.0077537866
87	0xbd3305f8	-0.043706864
88	0x3d09d941	0.033654455
89	0x3bc19c78	0.005908545
90	0x3d873d52	0.06603493
91	0xbd505b14	-0.05086811
92	0xbd93b93d	-0.07213066
93	0xbb86ff12	-0.004119762
94	0xbd8439f0	-0.06456363
95	0xbc124ffa	-0.008930201
96	0x3d9ca0ee	0.076478824
97	0xbc28dfe7	-0.010307289
98	0xbd76d456	-0.060261093
99	0xbd12af2a	-0.03581158
100	0xbccf2f29	-0.025291042
101	0x3daa7b0c	0.083242506
102	0x3d047f6c	0.03234808
103	0xbd6b9092	-0.05751092
104	0xbdabdfaf	-0.08392274
105	0x3cc3551d	0.023844296
106	0x3d0dafe4	0.03459157
107	0xbd90109d	-0.07034419
108	0x3d426ca5	0.047466893
109	0xbd83cc32	-0.064354315
110	0x3ce0b196	0.02742843
111	0x3cc42070	0.023941249
112	0x3d99efb2	0.075164214
113	0x3d5299ec	0.051416323
114	0xbd0dcb21	-0.034617547
115	0xbce521b0	-0.027970165
116	0xbda661de	-0.081241354
117	0x3d85c458	0.0653159
118	0x3db12dcb	0.086513124
119	0x3d660e28	0.056165844
120	0x3dad3333	0.08457031
121	0xbd9767d8	-0.073928535
122	0x3da9fb6d	0.08299909
123	0x3bbc633d	0.005749135
124	0x3cec2f4a	0.028831143
125	0x3cc7faa8	0.024411514
126	0xbd6fda60	-0.058557868
127	0xbd2203a0	-0.03955424

advantage_stream.0.weight f4 [128, 128]
0	0xbd273b1a	-0.040827848
1	0x3d86ce64	0.06582335
2	0xbd708907	-0.05872443
3	0x3b9c6c28	0.0047736354
4	0xbd45004f	-0.048095997
5	0x3d5865cc	0.052831456
6	0x3d9984e3	0.07496049
7	0xbdbc41e4	-0.09192255
8	0xbd0c94e7	-0.03432169
9	0xbd73725d	-0.059435237
10	0xbcccac0e	-0.024984386
11	0xbc24ee42	-0.010066571
12	0x3cbc5add	0.022992546
13	0xba83ee63	-0.0010065552
14	0x3d831e85	0.064023055
15	0xbd0ac446	-0.033878587
16	0xbcc9935e	-0.024606403
17	0xbcdc7623	-0.0269118
18	0x3d069c64	0.03286399
19	0xbd84cb07	-0.06484037
20	0x3d1ed5f1	0.03877825
21	0x3d9620f5	0.07330505
22	0x3d7db1fb	0.061937314
23	0xbd0688d6	-0.03284534
24	0xbd931ceb	-0.0718325
25	0x3ca5794a	0.020199437
26	0x3d5d4df9	0.05402944
27	0xbbaeb035	-0.005331064
28	0x3cc5c5d0	0.024142176
29	0xbda43ee6	-0.080198094
30	0x3d4d14b8	0.050068587
31	0xbd698388	-0.057010204
32	0xbd457f7c	-0.04821728
33	0xbdb409a3	-0.087909006
34	0xbd963848	-0.073349535
35	0x3c91a2e4	0.017777868
36	0xbd6b2492	-0.057407923
37	0xbd405729	-0.046958122
38	0xbd09d791	-0.033652846
39	0x3bc46f18	0.0059946887
40	0xbce4eaa3	-0.027943915
41	0xbd16a34c	-0.036776826
42	0x3d46af7e	0.048507206
43	0xbd46ce69	-0.04853669
44	0xbc7f688e	-0.015588893
45	0xbd386c77	-0.045025315
46	0xbd0b0561	-0.033940677
47	0x3c563863	0.013074967
48	0x3ba9d687	0.0051830444
49	0x3cec0f9b	0.028816035
50	0xbd12c442	-0.035831697
51	0xbd8a6644	-0.06757787
52	0x3c5ba051	0.013404922
53	0xbd846c5f	-0.06465983
54	0x3d850df8	0.06496805
55	0x3db0b5a0	0.08628392
56	0xbd91dc8a	-0.071221426
57	0x3b816b45	0.003949555
58	0x3da37cc6	0.07982783
59	0x3daf4c5c	0.08559486
60	0xbcbb286e	-0.022846427
61	0x3d00a2ff	0.031405445
62	0x3c5af53d	0.013364133
63	0x3d9fcc16	0.07802598
64	0xbd1981bd	-0.037477244
65	0x3d1d33c0	0.03837943
66	0xbc370d99	-0.0111726755
67	0xbd33dded	-0.043912817
68	0xbd42264a	-0.047399797
69	0xbdb82696	-0.08991735
70	0xbd8cd7de	-0.06877111
71	0xbcfcba2e	-0.030850496
72	0xbd945f44	-0.07244733
73	0x3d82ba15	0.063831486
74	0x3d99b4bf	0.07505178
75	0xbdbfff04	-0.09374812
76	0x3d37897f	0.04480886
77	0x3c8aa575	0.0169246
78	0x3d2291e9	0.039689932
79	0x3c8f1ec5	0.017470727
80	0x3d879c00	0.066215515
81	0x3d8bd1a0	0.06827092
82	0xbd8442fa	-0.06458087
83	0x3d2806f6	0.041022263
84	0x3cede6ec	0.029040776
85	0xbd97e7e5	-0.07417277
86	0x3d1ebf61	0.038756732
87	0x3d0de061	0.034637813
88	0xbd4923f3	-0.04910655
89	0xbcf3c9bc	-0.02975928
90	0x3d892f40	0.06698465
91	0xbba6e29e	-0.005092933
92	0x3d682b8c	0.056682155
93	0x3d7b9074	0.061417058
94	0x3c74e5e1	0.0149473855
95	0x3cebb619	0.028773354
96	0x3baf0f3b	0.005342392
97	0x3d9efbcf	0.077628724
98	0x3a0fddad	0.00054880494
99	0xbcc1c085	-0.02365137
100	0x3d23ec3a	0.040020205
101	0xbd2674a6	-0.04063859
102	0x3db24b9e	0.08705829
103	0x3db729e1	0.08943535
104	0x3b8f071c	0.004364861
105	0xbd555c7c	-0.052090153
106	0x3d1f2bca	0.03886012
107	0xbc190171	-0.009338723
108	0x3c7e4e56	0.015521606
109	0xbb697507	-0.0035622732
110	0x3afe505a	0.0019402609
111	0xbda487bf	-0.08033704
112	0x3d0c8806	0.03430941
113	0x3d67b3b5	0.056567866
114	0xbd891800	-0.06694031
115	0x3b8b7add	0.00425659
116	0xbd4cfbc9	-0.05004481
117	0x3d836dcb	0.06417426
118	0xbd9030fb	-0.07040592
119	0x3d601e43	0.05471636
120	0x3d838c08	0.06423193
121	0xbd0cf354	-0.034411743
122	0x3d6a868d	0.057257224
123	0xbd914c89	-0.07094676
124	0xbd0c88fa	-0.03431032
125	0xbd26c69b	-0.04071675
126	0x3d1e1b47	0.038600232
127	0xbc61e196	-0.013786694
128	0x3d0ed55e	0.03487145
129	0x3da9b305	0.082860984
130	0xbda0acd5	-0.07845465
131	0xbcd0cc07	-0.025487913
132	0x3cc917a8	0.024547413
133	0xbdacad1a	-0.08431454
134	0xbd94f83a	-0.07273908
135	0xbd0203fa	-0.031742074
136	0xbcfcde5b	-0.030867746
137	0xbd621e59	-0.055204723
138	0xbc791144	-0.01520187
139	0xbcf7d6f5	-0.030253867
140	0xbd24c28c	-0.040224597
141	0xbdb169bb	-0.086627446
142	0xbb35d4a7	-0.002774516
143	0x3d19a0ff	0.037507053
144	0xbd6f38a4	-0.058403626
145	0xbd98ded9	-0.0746438
146	0xbdb47a22	-0.088123575
147	0x3c69b897	0.014265201
148	0x3db3a8fc	0.087724656
149	0x3d8d818d	0.069094755
150	0x3c6b4148	0.014358826
151	0x3d98ec70	0.07466972
152	0xbc0677c0	-0.008207262
153	0xbd56695d	-0.052346576
154	0x3c9a716c	0.018852912
155	0xbd69584a	-0.056968965
156	0x3d1cc895	0.038277227
157	0xbd8f71bd	-0.07004116
158	0xbd026f3b	-0.03184436
159	0x3d765356	0.06013807
160	0x3d73ff3c	0.059569582
161	0xbd4b6ae5	-0.04966249
162	0xbc5e4e2a	-0.01356844
163	0xbd036d43	-0.032086622
164	0xbd478d51	-0.048718754
165	0xbcc268e0	-0.023731649
166	0x3d7a0d63	0.061047923
167	0xbcd2ea68	-0.02574654
168	0xbcbd9d75	-0.02314637
169	0xbd13ef1a	-0.036116697
170	0x3d627edb	0.05529676
171	0x3d6ef8e7	0.05834284
172	0xbb95a0b0	-0.0045662746
173	0xbd646ccd	-0.055767823
174	0x3dad0c03	0.08449557
175	0xbd185ffc	-0.037200913
176	0xbcc92430	-0.024553388
177	0xbc5eb4d7	-0.01359292
178	0xbd3e7ec0	-0.046507597
179	0xbc254a9a	-0.010088587
180	0x3cfa93c6	0.030588042
181	0xbda77918	-0.08177394
182	0x3da74449	0.08167321
183	0x3d568b3c	0.052378878
184	0x3d53332e	0.05156248
185	0xbd5157d3	-0.051109146
186	0xbcf5b02e	-0.029991236
187	0xbcdb0811	-0.026737245
188	0x3d5bfa48	0.053705484
189	0x3da0fd68	0.078608334
190	0x3a370601	0.00069817906
191	0x3d35664a	0.044287004
192	0x3db19bab	0.086722694
193	0xbd4e6177	-0.05038592
194	0x3d71ec7f	0.05906343
195	0x3d9f465a	0.0777709
196	0x3c42be92	0.011886256
197	0xbd70d710	-0.05879885
198	0xbd58c209	-0.05291942
199	0xbd83c731	-0.06434477
200	0xbd31106e	-0.04322856
201	0xbd4520e1	-0.04812706
202	0x3cb52ea5	0.022116968
203	0x3d0d97f5	0.034568746
204	0xbbb95ab6	-0.0056565655
205	0x3d31210d	0.04324441
206	0xbd392182	-0.04519797
207	0x3d9b0bcc	0.075706095
208	0xbd93ae89	-0.07211024
209	0x3d364b2d	0.044505287
210	0xbcd83e55	-0.02639691
211	0xbd89e410	-0.067329526
212	0xbc8f5618	-0.017497107
213	0x3cd4d569	0.025980668
214	0x3c09568c	0.008382451
215	0xbcd5e5a2	-0.026110474
216	0xbd841b35	-0.06450502
217	0x3d1f0095	0.038818914
218	0x3d911985	0.070849456
219	0x3d42cee9	0.047560606
220	0x3d68c510	0.05682856
221	0x3c3d6310	0.011559263
222	0xbcff024c	-0.031129025
223	0x3d79c552	0.060979195
224	0xbd7f5d06	-0.062344573
225	0x3daae611	0.08344663
226	0x3b1133e5	0.0022156176
227	0x3d247fac	0.04016082
228	0x3d84adf3	0.06478491
229	0x3c81bb59	0.015836405
230	0xbcd6d30b	-0.02622368
231	0x3c5595e2	0.013036223
232	0x3d90040d	0.070320226
233	0x3d9103ca	0.07080801
234	0x3da266af	0.079297416
235	0x3c45f15d	0.012081471
236	0xbc2698cd	-0.0101682665
237	0xbbfee448	-0.007778678
238	0xbc9ae0f7	-0.0189061
239	0xbd52bd41	-0.051450018
240	0xbcdc1a25	-0.026867935
241	0x3d9c79d9	0.07640428
242	0x3daee309	0.08539397
243	0x3a590443	0.0008278528
244	0xbce3aab8	-0.027791366
245	0xbcb98ccc	-0.022650145
246	0x3c645a64	0.013937566
247	0x3cdcef37	0.026969535
248	0xbc147c24	-0.009062801
249	0xbd6f8371	-0.05847496
250	0xbbd3cc8b	-0.0064635924
251	0xbce0db65	-0.027448365
252	0xbdb354cc	-0.08756408
253	0xbc51e3eb	-0.012810688
254	0x3cfda036	0.030960184
255	0xbcc870c0	-0.024467826

advantage_stream.0.bias f4 [128]
0	0xbd787522	-0.06065858
1	0x3c850f2c	0.016242586
2	0x3d26f5ff	0.040761944
3	0xbc37a9d3	-0.011209923
4	0x3cf8126c	0.030282222
5	0xbd3b68a0	-0.045754075
6	0xbc6789d0	-0.014131978
7	0xbd7dfb14	-0.062007025
8	0xbda0b225	-0.078464784
9	0xbceeb811	-0.029140504
10	0xbd5ad8b1	-0.05342931
11	0x3d02471b	0.031806093
12	0x3db4349f	0.08799099
13	0x3da28f29	0.07937462
14	0x3bfbe7ed	0.00768756
15	0x3c8bb6f5	0.017055014
16	0x3d72f909	0.05931953
17	0xbd522ee9	-0.05131427
18	0x3d86789c	0.06565973
19	0xbcce13c0	-0.025155902
20	0xbb8bc75c	-0.004265709
21	0x3c31fed6	0.01086398
22	0xbd0f1c88	-0.03493932
23	0x3cd475c3	0.02593506
24	0x3d7f4fbe	0.062331907
25	0x3d8c4a73	0.068501376
26	0xbc156222	-0.009117635
27	0x3ca10906	0.019657623
28	0xbd800110	-0.06250203
29	0xbcea2629	-0.02858265
30	0x3c8aee80	0.016959429
31	0xbc8a89f3	-0.016911482
32	0x3d6ae122	0.05734361
33	0x3b8fef09	0.004392509
34	0xbd94ffd3	-0.07275357
35	0xbb9f9bdf	-0.004870876
36	0xbdab87e9	-0.08375532
37	0x3b2427a2	0.0025048037
38	0x3da4a4e8	0.08039266
39	0xbbe22425	-0.0069012814
40	0xbbfb10f5	-0.0076619335
41	0x3bd0ff1a	0.0063780667
42	0x3d443619	0.047903154
43	0x3d672cdb	0.056439262
44	0xbdb6fd69	-0.08935053
45	0xbd86c119	-0.06579799
46	0xbdb5dc9e	-0.0887997
47	0x3c2bd3d4	0.0104875155
48	0x3cbc8bb6	0.023015838
49	0xbd97889b	-0.07399102
50	0xbd7b0e03	-0.06129266
51	0xbc9521aa	-0.018204529
52	0x3d99190c	0.074754804
53	0x3dbf53f2	0.09342183
54	0x3d232eb4	0.03983946
55	0x3d2170e8	0.039414316
56	0x3dc33c0e	0.09532939
57	0x3dbbe66d	0.091748096
58	0x3c0d121d	0.008610276
59	0xbd3b038c	-0.04565768
60	0xbd5ddc5b	-0.054165225
61	0x3bf3e482	0.0074430117
62	0xbd8764c8	-0.066110194
63	0x3cde647e	0.027147528
64	0x3cb7f6e0	0.022456586
65	0xbd7483a2	-0.059695847
66	0xbd87e6d0	-0.06635821
67	0x3d94676e	0.0724629
68	0xbd9588da	-0.07301493
69	0xbaf11178	-0.0018392047
70	0x3d5fff9a	0.05468712
71	0xbd80c422	-0.06287409
72	0x3c5bebd2	0.013422923
73	0xbd42b181	-0.047532562
74	0xbd4c091f	-0.049813386
75	0xbc3b2f11	-0.011424796
76	0xbca64147	-0.020294799
77	0xbb31c4ef	-0.0027125438
78	0xbb758cf9	-0.003746806
79	0x3d6c23f6	0.057651483
80	0x3dc703ea	0.097175434
81	0xbd9d34a5	-0.07676057
82	0xbbe0ed03	-0.0068641915
83	0x3cd87f19	0.026427792
84	0xbd4da04c	-0.0502017
85	0xbd6e62d5	-0.058199722
86	0x3cfdc887	0.030979408
87	0xbd5ccaf9	-0.053904507
88	0xbd229e89	-0.039701972
89	0xbdabb3c0	-0.08383894
90	0x3d861072	0.065461054
91	0xbd814009	-0.06311042
92	0xbafee021	-0.0019445458
93	0x3b179cf7	0.002313433
94	0xbd38774a	-0.045035638
95	0x3d861a58	0.065479934
96	0x3cac72f0	0.0210509
97	0xbc3687b8	-0.011140756
98	0x3d35ba38	0.044367045
99	0xbc5ed648	-0.013600893
100	0x3d4a3dca	0.049375333
101	0xbd640251	-0.05566627
102	0x3cb38f36	0.021918874
103	0xbcf9b6a7	-0.030482603
104	0x3d878cc0	0.06618643
105	0x3c5467eb	0.012964229
106	0xbcf24d41	-0.029577853
107	0xbd0af064	-0.03392066
108	0x3cd87cd3	0.026426708
109	0xbd718262	-0.058962233
110	0xbcd0235f	-0.025407491
111	0xbca9e314	-0.020738162
112	0x3d11f575	0.035634477
113	0xbd5c2f90	-0.053756297
114	0xbd929576	-0.07157414
115	0xbd919206	-0.0710793
116	0x3d899a7c	0.06718919
117	0x3bddd3b1	0.0067696203
118	0xbc48fd11	-0.012267367
119	0x3d98ec8b	0.07466992
120	0x3cb3d295	0.021951
121	0x3d6c216b	0.057649057
122	0xbd1cd183	-0.038285743
123	0x3cd81391	0.026376517
124	0xbd85d44d	-0.06534634
125	0xbca4ee02	-0.020133022
126	0x3d73588e	0.059410624
127	0x3d30e6c2	0.043188818
