Qtarget.pth (torch, 759238 bytes, 33 tensors)

feauture_layer.0.weight f4 [128, 91]
0	0x3d4d4901	0.05011845
1	0xba2bcc1f	-0.0006553549
2	0xbd7d857c	-0.06189488
3	0x3da3b9f7	0.07994454
4	0xbdb1ca59	-0.08681173
5	0x3d1a3482	0.03764773
6	0xbab055aa	-0.0013453264
7	0xbd35d0a2	-0.04438842
8	0xbd5805d4	-0.052739933
9	0x3d98742e	0.074440345
10	0xbca77091	-0.020439418
11	0xbd6df4d7	-0.058094826
12	0xbd11b513	-0.035573076
13	0x3d7fc7f4	0.06244655
14	0xbdaed172	-0.08536042
15	0x3d97a96f	0.07405364
16	0xbc398db2	-0.011325287
17	0x3d35a008	0.04434207
18	0x3d34bf50	0.044127762
19	0x3c4ca9f7	0.012491695
20	0xbc86dabb	-0.01646172
21	0xbd52cda8	-0.05146566
22	0x3d6ba39d	0.05752908
23	0x3c6097dc	0.013708081
24	0xbd305632	-0.043050952
25	0x3ca6a952	0.02034441
26	0xbd46f72c	-0.048575565
27	0x3d37351b	0.04472838
28	0xbcde54fc	-0.027140133
29	0x3d95b966	0.073107526
30	0x3d0b1e37	0.033964362
31	0x3d999b45	0.075003184
32	0xbd7c5291	-0.06160218
33	0xbd439539	-0.04774973
34	0xbca6973c	-0.020335786
35	0xbcb93683	-0.022609001
36	0xbcde60c5	-0.027145753
37	0xbd1ae056	-0.0378116
38	0x3d9af1d7	0.075656585
39	0xbdac3bbc	-0.08409831
40	0x3d460e10	0.048353255
41	0xbc951105	-0.018196592
42	0xbd87b8a7	-0.066270165
43	0xbd5dbf66	-0.05413761
44	0xbd6b70a0	-0.057480454
45	0x3d7ed416	0.06221398
46	0xbd7d3442	-0.061817415
47	0xbd9fbb31	-0.07799376
48	0x3c6056ec	0.013692599
49	0xbd7ebdaf	-0.062192615
50	0x3c89d014	0.016822852
51	0xbb0ad44e	-0.0021183672
52	0xbd1956d3	-0.037436318
53	0xbd3d598f	-0.046227988
54	0x3d6a8397	0.0572544
55	0xbd053089	-0.03251699
56	0x3b5085ac	0.0031817956
57	0xbcb61c74	-0.022230364
58	0xbda15462	-0.07877423
59	0xbd69bef8	-0.057066888
60	0xbc02bacd	-0.007979107
61	0x3d774388	0.060367137
62	0x3d33801e	0.043823354
63	0x3d84c9cd	0.06483803
64	0xbcf947f6	-0.030429821
65	0x3d04d8cc	0.032433316
66	0xbdafe31f	-0.08588242
67	0x3c2c879e	0.0105303805
68	0xbc127ff5	-0.00894164
69	0xbd007099	-0.03135738
70	0xbdb22486	-0.086983725
71	0x3d515582	0.051106937
72	0xbd48a399	-0.048984144
73	0x3a52a779	0.00080358196
74	0x3da1e454	0.07904878
75	0xbd5cb6de	-0.053885333
76	0xbd2b651b	-0.04184447
77	0x3d23b6ac	0.03996913
78	0x3cd9dcc5	0.026594529
79	0xbd87651c	-0.06611082
80	0x3d9424c3	0.07233574
81	0x3d2f41da	0.04278741
82	0x3bdd7545	0.0067583644
83	0xbd92026d	-0.07129369
84	0x3ced0b9a	0.028936196
85	0x3d2decc2	0.042462118
86	0xbbf9342c	-0.0076050963
87	0xbda39609	-0.07987601
88	0x3cef7663	0.029231256
89	0x3d1dbe05	0.038511295
90	0xbd58bc11	-0.05291373
91	0x3d9e8ec0	0.07742071
92	0x3d080d6d	0.03321593
93	0xbd4d9a61	-0.050196055
94	0x3d9d58f0	0.07682979
95	0x3d8651e1	0.06558586
96	0xbd5f157d	-0.054463852
97	0xbc0b58ca	-0.008505056
98	0xbd9d8af9	-0.076925226
99	0x3d01525d	0.03157269
100	0xbd6f0305	-0.05835249
101	0xbdb90d66	-0.09035759
102	0xbd31c2d0	-0.04339868
103	0x3d1d66f4	0.038428262
104	0xbd963d65	-0.07335929
105	0x3d8a9aa2	0.06767775
106	0x3da97575	0.08274356
107	0xbd21a0d7	-0.03946003
108	0x3ba81680	0.0051296353
109	0xbd57002e	-0.052490406
110	0x3d99cd4a	0.07509859
111	0xbca5cef5	-0.020240286
112	0xbdb35e8a	-0.08758266
113	0x3d97fd6b	0.074213825
114	0x3c67f42d	0.014157337
115	0x3d5e7307	0.054308917
116	0xbd426dc6	-0.04746797
117	0x3d92f38b	0.071753584
118	0x3dac7363	0.08420446
119	0xbd3ba24a	-0.045809068
120	0x3da5554a	0.08072908
121	0xbc7424f7	-0.014901391
122	0x3c478d4c	0.012179684
123	0xbd88698e	-0.06660758
124	0x3d886d87	0.06661516
125	0x3d279996	0.040917955
126	0x3d1a16c7	0.03761938
127	0x3d82f97b	0.06395241
128	0x3c93a31e	0.018022116
129	0xbccb8b99	-0.024846839
130	0xbdb06bc4	-0.08614305
131	0x3cf00772	0.029300425
132	0xbcce73c7	-0.025201691
133	0xbd1ed23c	-0.038774714
134	0xbd8016a9	-0.06254322
135	0xbd2d3379	-0.042285416
136	0x3cf25ffa	0.02958678
137	0x3d8ee1d7	0.06976669
138	0x3d154ec0	0.036452055
139	0x3d3f4879	0.046699975
140	0x3d403f7c	0.046935543
141	0x3db6a063	0.0891731
142	0xbdbe5eff	-0.09295463
143	0x3da929fd	0.08259962
144	0x3d5f8271	0.054567758
145	0xbaa517c0	-0.0012595579
146	0xbd6b06e9	-0.057379637
147	0xbda4b428	-0.080421746
148	0xba570b12	-0.0008203249
149	0x3d377a2e	0.044794254
150	0xbd4f30d8	-0.05058369
151	0xbdb0cef8	-0.08633226
152	0xb95767ea	-0.00020542709
153	0x3c0277c7	0.007963127
154	0xbbbbe73e	-0.0057343533
155	0x3c62568b	0.013814579
156	0xbd4af8b3	-0.049553584
157	0xbb36fadf	-0.0027920527
158	0xbcd0d4c8	-0.025492087
159	0x3d414a11	0.047189776
160	0x3d2f82db	0.042849403
161	0x3d831723	0.06400897
162	0x3d7f2a5f	0.062296268
163	0xbd1299b9	-0.035791133
164	0x3d124c92	0.035717554
165	0xbd90e405	-0.07074741
166	0x3d167a9c	0.036738023
167	0x3dd03f77	0.10168355
168	0x3d1c675b	0.038184505
169	0xbda471ba	-0.08029504
170	0xbd9d9f52	-0.076964036
171	0xbd8716ff	-0.06596183
172	0x3cf82aa2	0.030293766
173	0x3b5954f3	0.0033162206
174	0x3d0e0c4d	0.0346797
175	0xbd0b0218	-0.033937544
176	0x3d016596	0.03159102
177	0x3d5615f0	0.052267015
178	0xbdcf3592	-0.101176396
179	0xbd55a0bf	-0.052155253
180	0x3d141640	0.03615403
181	0xbbe7dc27	-0.0070758048
182	0xbd8ab228	-0.06772262
183	0xbd316c6c	-0.04331629
184	0xbd3111ab	-0.04322974
185	0xbbefe6bb	-0.0073212064
186	0xbce41e31	-0.027846428
187	0x3c9b5beb	0.018964728
188	0xbd1d68a0	-0.038429856
189	0xbc1abdf6	-0.009444704
190	0x3dc79ac4	0.09746316
191	0x3d51d1b4	0.05122538
192	0x3dccfbe8	0.10008985
193	0xbd7cc715	-0.061713297
194	0xbd709811	-0.05873877
195	0xbc864ac2	-0.01639307
196	0xbdbb5f63	-0.09149053
197	0x3d7aa820	0.061195493
198	0xbc3348a9	-0.0109426165
199	0xbcd51b8d	-0.026014114
200	0xbda5cbfe	-0.08095549
201	0xbd8a75a4	-0.067607194
202	0x3cdc4493	0.026888167
203	0x3da62f0e	0.08114444
204	0x3c283532	0.010266589
205	0x3cb6bb69	0.022306161
206	0x3d349eca	0.044096746
207	0x3cdb62b3	0.026780462
208	0x3d8f79a2	0.070056215
209	0x3cb495f0	0.022044152
210	0x3cc25438	0.0237218
211	0xbbe9d433	-0.007135892
212	0xbbdecd4e	-0.0067993766
213	0x39f3e5ef	0.00046519886
214	0x3d226046	0.039642595
215	0x3d12610f	0.035737094
216	0xbd1993e1	-0.037494544
217	0xbd8a101b	-0.06741353
218	0x3d82d629	0.06388504
219	0x3dc6b562	0.09702565
220	0xbd8d2922	-0.06892611
221	0x3cce3e35	0.025176147
222	0x3d0c2067	0.03421059
223	0xbd931c01	-0.07183076
224	0xbaf45a45	-0.0018642625
225	0x3d7d40ad	0.061829258
226	0xbcf9ed55	-0.030508677
227	0xbd8195e4	-0.063274175
228	0x3d7c6496	0.061619364
229	0xbd9c1ca7	-0.076226525
230	0x3dbe69c3	0.09297516
231	0x3da683e2	0.081306234
232	0xbda36981	-0.07979108
233	0x3c12d928	0.008962907
234	0xbd365d45	-0.044522543
235	0xbd415876	-0.047203504
236	0x3c91dc90	0.017805368
237	0xbd845eb7	-0.06463378
238	0x3d8df2fc	0.06931111
239	0xbd089624	-0.03334631
240	0x3d56a1ef	0.052400526
241	0xbd13ad21	-0.03605378
242	0xbd90256a	-0.07038386
243	0x3d8255da	0.06364031
244	0x3c597999	0.01327362
245	0x3d7e06a9	0.06201807
246	0xbda4a79c	-0.080397815
247	0xbc6c95f1	-0.014440046
248	0x3da1c2ea	0.07898505
249	0xbd8f6ff4	-0.07003775
250	0xbda61d13	-0.08111014
251	0x3d928af9	0.07155413
252	0x3d6d3318	0.057910055
253	0x3d97a345	0.07404188
254	0xbc9bcf56	-0.019019764
255	0xbda45812	-0.080246106

feauture_layer.0.bias f4 [128]
0	0xbb83888e	-0.0040140813
1	0x3dab7318	0.08371562
2	0x3c845561	0.016153993
3	0x3dc8f916	0.09813134
4	0xbd845710	-0.06461918
5	0xbd715e30	-0.058927715
6	0xbd8f632d	-0.07001338
7	0x3b092190	0.0020924546
8	0x3d6160a3	0.0550238
9	0xbda073cf	-0.07834589
10	0x3c1538fa	0.009107823
11	0x3d329c13	0.043605875
12	0xbca6d753	-0.020366346
13	0xbcc13b49	-0.02358784
14	0x3d8cfe72	0.06884469
15	0x3cc30ca2	0.023809735
16	0xbc9cc0c7	-0.019134892
17	0xbd7f9bbb	-0.062404376
18	0x3d1b9151	0.03798038
19	0x3d89f924	0.06736973
20	0xbca3ac81	-0.019979717
21	0xbd65cbe5	-0.056102652
22	0x3d081118	0.033219427
23	0x3d94f5c8	0.072734416
24	0xbd6ae87b	-0.057350617
25	0x3daafbb5	0.083487906
26	0xbdbb4b0d	-0.09145174
27	0x3b88c54c	0.0041739102
28	0x3d73b92f	0.059502777
29	0x3d91686c	0.07099995
30	0x3db6291f	0.08894562
31	0xbcfe6e7e	-0.031058546
32	0x3d766348	0.060153276
33	0xbd232d8f	-0.03983837
34	0x3c80e472	0.015733931
35	0xbdc63397	-0.09677809
36	0xbcec2ef9	-0.028830992
37	0x3d96b9a2	0.073596254
38	0xbdc2c78d	-0.095107175
39	0x3da9278c	0.08259496
40	0xbd58345a	-0.0527843
41	0xbd35e683	-0.044409286
42	0x3b9b2326	0.0047344146
43	0x3d948f6e	0.072539195
44	0x3d848bc0	0.06471968
45	0x3d7b8a93	0.06141145
46	0x3ced6522	0.028978888
47	0xbd71d425	-0.059040207
48	0xbd25f63c	-0.04051803
49	0xbbd26373	-0.0064205467
50	0x3d3de772	0.0463633
51	0x3d59ddd9	0.053190086
52	0x3b771000	0.0037698746
53	0x3c4acf50	0.012378529
54	0x3dbdc30f	0.0926572
55	0xbcd10cbe	-0.025518771
56	0xbd017ea2	-0.031614907
57	0xbb4e0f0f	-0.003144208
58	0xbc05cc96	-0.008166453
59	0x3d1e4715	0.038642008
60	0xbd8c8680	-0.06861591
61	0xbd3c6d96	-0.046002947
62	0xbd89a1a9	-0.06720287
63	0xbbb7647d	-0.005596696
64	0x3c2d4e47	0.010577745
65	0x3dc33740	0.095320225
66	0xbd93053f	-0.07178735
67	0xbdb72326	-0.08942251
68	0xbd01e2b6	-0.03171035
69	0x3d25fdd4	0.040525272
70	0x3d90a625	0.070629396
71	0x3c93e95b	0.018055608
72	0xbd97bf7f	-0.07409572
73	0x3da5d7f1	0.08097828
74	0xbd95484d	-0.07289181
75	0x3d45feee	0.048338823
76	0x3d17f49c	0.037098512
77	0xbd948627	-0.0725215
78	0x3b83671c	0.0040100943
79	0xbbcf150d	-0.006319648
80	0x3d8715b8	0.065959394
81	0x3db004d6	0.085946724
82	0xbda423db	-0.080146514
83	0xbcf2c449	-0.029634612
84	0xbbc0bd9f	-0.0058819796
85	0x3d93d488	0.072182715
86	0xbdaaae52	-0.0833403
87	0xbdb781ee	-0.08960329
88	0xbbf8e94e	-0.0075961715
89	0x3d71342c	0.058887646
90	0x3d95a890	0.07307541
91	0x3d103c4e	0.03521376
92	0xbcd89191	-0.026436599
93	0xbb756034	-0.0037441375
94	0x3da8cc83	0.082421325
95	0x3ce2a2b8	0.027665481
96	0x3cef9d5c	0.02924984
97	0x3d705c3d	0.058681715
98	0xbd43b7e4	-0.047782794
99	0x3b971dc0	0.004611701
100	0x3cc0b1fb	0.023522368
101	0xbd9974f7	-0.074930124
102	0x3dc28540	0.09498072
103	0xbd85c9b0	-0.065326095
104	0xbc261d09	-0.010138758
105	0x3d824047	0.06359916
106	0xb9e2bbd6	-0.00043246028
107	0x3dc8844b	0.09790858
108	0x3d9870b7	0.07443374
109	0x3d1dedf8	0.038557023
110	0x3d84769a	0.06467934
111	0x3d69505e	0.05696141
112	0xbc1ec3e1	-0.009690256
113	0xbcc01b6b	-0.023450574
114	0xbd91b801	-0.07115174
115	0x3c87738d	0.016534591
116	0xbcc240ac	-0.023712479
117	0x3d8bccd3	0.068261765
118	0xbd43b093	-0.047775816
119	0xbd8e0bd5	-0.069358505
120	0x3d07000c	0.03295903
121	0x3b5d5f70	0.003377881
122	0xbdb2883c	-0.08717391
123	0x3dbd006c	0.09228596
124	0x3d35110f	0.04420572
125	0xbba07d22	-0.0048977295
126	0x3da478d4	0.08030859
127	0xbd93585f	-0.0719459

feauture_layer.2.weight f4 [128, 128]
0	0xbd8ae5dc	-0.067821234
1	0xbda1dc0d	-0.079032995
2	0xbcd40620	-0.025881827
3	0x3c09f62c	0.008420508
4	0x3d1f0649	0.038824353
5	0xbca8cc0d	-0.020605111
6	0xbc5243e9	-0.012833574
7	0x3c2e327a	0.010632152
8	0xbd9674a7	-0.073464684
9	0xbd9b257d	-0.0757551
10	0xbcd95693	-0.02653054
11	0x3b84eea6	0.0040567694
12	0xbd73bd2d	-0.059506584
13	0x3d04efc4	0.03245522
14	0x3bdb229b	0.006687475
15	0x3d556337	0.05209657
16	0xbda38526	-0.079843804
17	0x3d7f8cf4	0.062390283
18	0x3d651edb	0.05593763
19	0xbcf50877	-0.029911263
20	0x3d0d8810	0.034553587
21	0x3d4cf508	0.050038368
22	0xbdb24035	-0.08703653
23	0x3c81079c	0.015750699
24	0x3d1a474e	0.037665658
25	0x3d5ac912	0.05341441
26	0x3daab195	0.08334652
27	0x3d88469b	0.06654092
28	0xbd48b082	-0.048996456
29	0x3cd85664	0.026408382
30	0x3dabb235	0.083836
31	0x3d74332d	0.059619118
32	0xbccc6a81	-0.024953129
33	0xbd05c45a	-0.03265796
34	0xbd8b5887	-0.068039946
35	0x3d66b4fb	0.05632494
36	0x3bbf3c52	0.005836048
37	0xbd5686f1	-0.052374784
38	0xbd6a3e47	-0.0571883
39	0xbd27da68	-0.040979773
40	0x3cdc3632	0.026881311
41	0x3da1af3b	0.07894751
42	0x3d649486	0.055805705
43	0xbd3c69af	-0.045999225
44	0x3da408a9	0.08009464
45	0xbd54ce4d	-0.051954556
46	0xbd6d8183	-0.05798484
47	0x3d08d791	0.033408705
48	0xbd3e0314	-0.046389654
49	0x3d1cd478	0.038288563
50	0xbd4c18fb	-0.04982851
51	0xbcc3f571	-0.023920747
52	0xbd81f44e	-0.063454255
53	0x3d920f78	0.07131857
54	0xbd4f97ff	-0.050682064
55	0x3d1ad799	0.037803266
56	0xbc54ca4c	-0.012987684
57	0xbd89170e	-0.066938505
58	0xbce1f865	-0.027584264
59	0x3d8f16f4	0.069868
60	0xbd6c04d6	-0.0576218
61	0x3d6d9f42	0.05801321
62	0x3d81d171	0.06338776
63	0xbcc424b2	-0.023943279
64	0x3d8494b7	0.064736776
65	0xbd5bbdec	-0.05364792
66	0xba7cb374	-0.00096397777
67	0x3d727ddc	0.05920206
68	0xbc8c2a43	-0.017109996
69	0xbd8fb7cf	-0.070174806
70	0x3d945243	0.07242253
71	0xbd05a022	-0.032623418
72	0x3d50e491	0.050999228
73	0x3d96abfb	0.073570214
74	0xbd236bce	-0.039897732
75	0xbd8d905f	-0.06912302
76	0x3d8b5dd4	0.06805006
77	0xbd3b4730	-0.045722187
78	0x3d06d6c8	0.032919675
79	0x3d722fc2	0.059127577
80	0xbc31f6c5	-0.010862057
81	0x3d7edf7a	0.062224843
82	0xbc698efe	-0.014255283
83	0x3d5b840c	0.053592727
84	0x3da2f0a6	0.07956056
85	0x3c982657	0.01857297
86	0x3d37f661	0.0449127
87	0xbd1a4fd9	-0.037673805
88	0xbd0eddf3	-0.034879636
89	0x3d2224c3	0.03958584
90	0x3d1675a0	0.03673327
91	0xbd98f8c9	-0.07469327
92	0x3d7a3392	0.061084338
93	0x3cc0cb5e	0.023534473
94	0xbc03830e	-0.008026851
95	0x3cc79b3e	0.024366017
96	0xbc987014	-0.01860813
97	0xbd94310f	-0.0723592
98	0xbd7b2ec3	-0.061323892
99	0x3d6070f8	0.054795235
100	0x3bcd503e	0.006265669
101	0x3d4c9a6d	0.04995196
102	0x3cbde397	0.023179812
103	0x3c24b1ae	0.010052128
104	0x3d36765e	0.044546477
105	0xbaef1c3d	-0.0018242669
106	0x3da2dbf3	0.07952108
107	0xbd840f79	-0.06448264
108	0x3d3dbd46	0.046323083
109	0xbd31edeb	-0.043439787
110	0xbd81e489	-0.06342418
111	0xbd1dc9df	-0.038522597
112	0x3cf799ed	0.030224765
113	0x3b7e8f8c	0.0038842885
114	0x3d174f59	0.036940906
115	0xbcb8feb9	-0.022582399
116	0x3d5bdbbc	0.053676352
117	0xbcdeaa5d	-0.027180845
118	0xbd9c6d18	-0.076379955
119	0x3d869fb0	0.06573427
120	0xbd7f31ca	-0.062303342
121	0xbc9200fc	-0.017822735
122	0x3d99b81a	0.07505818
123	0x3a8cf49e	0.0010754054
124	0x3d0d7d58	0.034543365
125	0xbd93c791	-0.07215799
126	0xbc7f7049	-0.015590736
127	0xbd840f56	-0.064482376
128	0x3d38efc0	0.04515052
129	0xbd65e18f	-0.056123313
130	0x3bc2cdf4	0.0059449617
131	0x3c97f360	0.018548667
132	0xbccc1845	-0.024913916
133	0x3d85f0a1	0.06540037
134	0xbda2a9e2	-0.07942559
135	0xbd9dcf65	-0.07705573
136	0x3c4fa418	0.0126734
137	0x3c834db1	0.016028257
138	0x3ccd08b5	0.025028566
139	0x3d685bda	0.05672822
140	0x3d9a19ba	0.07524438
141	0x3ae1cc80	0.0017227083
142	0xbd7b35c8	-0.061330587
143	0xbd89bb38	-0.06725162
144	0x3c3d68bc	0.011560615
145	0xbd838181	-0.06421185
146	0xbd7da3ca	-0.06192378
147	0x3d84905d	0.064728476
148	0xbcb69b6e	-0.022290912
149	0xbba9772d	-0.0051716776
150	0x3d967add	0.07347653
151	0xbda6bce0	-0.08141494
152	0xbd6a0fad	-0.057143856
153	0x3d3356e4	0.043784037
154	0xbc9211df	-0.017830787
155	0xbc8ab3fa	-0.016931523
156	0x3d07b2cb	0.033129495
157	0xbd682cb6	-0.056683265
158	0xbd1833f2	-0.037158914
159	0x3d892f46	0.0669847
160	0xbd824e49	-0.06362588
161	0xbd136213	-0.035982203
162	0x3d53c6fe	0.051703446
163	0x3dab6930	0.08369672
164	0xbc64202f	-0.013923689
165	0x3c8b31be	0.016991492
166	0x3ccf060a	0.025271434
167	0x3cbf3c85	0.023344288
168	0x3d9e4fb5	0.07730047
169	0xbb8bc2f0	-0.0042651817
170	0x3d75fdb7	0.060056414
171	0x3d057b0e	0.032588057
172	0xbd441331	-0.047869865
173	0xbd14438a	-0.036197223
174	0xbd683503	-0.05669118
175	0xbd752274	-0.05984731
176	0xbbe1826d	-0.006882003
177	0x3c94bb37	0.018155677
178	0x3d4dd362	0.05025042
179	0xbb966ac1	-0.004590363
180	0xbcdcc9b0	-0.02695164
181	0xbcb8f4e6	-0.022577714
182	0x39cab27e	0.0003866143
183	0x3d581ead	0.05276363
184	0x3d460026	0.048339985
185	0xbd7d7838	-0.061882228
186	0xbc3bda85	-0.011465673
187	0x3c80af58	0.01570861
188	0x3cb8dade	0.022565302
189	0x3d2b71c2	0.041856535
190	0x3ba2215b	0.004947824
191	0xbd2dad95	-0.04240187
192	0xbd1ec9b9	-0.038766596
193	0xbd9726bf	-0.07380437
194	0x3d782f3c	0.06059192
195	0x3cacefba	0.021110404
196	0xbc869339	-0.016427623
197	0xbd9436ef	-0.0723704
198	0x3bc0cbce	0.0058836704
199	0xbd83fe65	-0.06445006
200	0xbca2e487	-0.019884361
201	0xbcb35579	-0.021891342
202	0x3bc4c599	0.006005001
203	0x3c90f851	0.017696531
204	0xbd14ccb9	-0.03632805
205	0x3ace4150	0.0015736017
206	0x3cf116db	0.029429844
207	0xbd958519	-0.07300777
208	0xbbb019ea	-0.005374183
209	0x3c78ea3e	0.015192566
210	0xbd4c2ae4	-0.04984559
211	0x3d515355	0.051104862
212	0x3ad67d69	0.001636428
213	0x3cb74077	0.022369606
214	0x3d88d42f	0.06681096
215	0x3c2e8fc4	0.010654394
216	0xbd2af6e7	-0.04173937
217	0x3d86102e	0.06546055
218	0x3d38e4bd	0.045140017
219	0x3c7de7c0	0.015497148
220	0xbcfd7d01	-0.030943396
221	0xbb7d6338	-0.0038663875
222	0x3dad4d61	0.084620245
223	0xbd86d4be	-0.06583546
224	0xbbd652b1	-0.0065406193
225	0x3d286dd4	0.041120365
226	0xbd190d57	-0.037366237
227	0xbaa56163	-0.0012617524
228	0xbd883194	-0.06650081
229	0x3d4c065e	0.04981076
230	0xbd9242e2	-0.07141663
231	0xbd50baf3	-0.05095954
232	0xbc642520	-0.013924867
233	0xbd6ae9cc	-0.057351872
234	0xbc21c9b7	-0.009874753
235	0xbcf6b656	-0.030116241
236	0x3d5bc516	0.053654753
237	0x3c6654eb	0.014058332
238	0x3d519f0b	0.051177066
239	0xbd464b3c	-0.048411593
240	0xbd61cf6b	-0.05512945
241	0x3ca4dc87	0.020124687
242	0x3d87a313	0.06622901
243	0x3da026e0	0.07819915
244	0xbd035ce8	-0.032071024
245	0xbb8bc5f5	-0.0042655417
246	0xbc798638	-0.015229754
247	0xbc48570b	-0.012227784
248	0xbd03d005	-0.032180805
249	0xbd517759	-0.05113921
250	0x3d6adc89	0.057339225
251	0x3d69c89d	0.057076085
252	0xbd8985a7	-0.06714945
253	0x3b11601e	0.0022182534
254	0x3d5cc1e2	0.05389584
255	0x3d39e67e	0.04538583

feauture_layer.2.bias f4 [128]
0	0x3c465355	0.012104829
1	0x3d88e68e	0.066846
2	0xbd9e1364	-0.07718542
3	0x3d4b4ba9	0.049632702
4	0xbd8f2ce2	-0.069909826
5	0xbdae2d5a	-0.08504744
6	0xbd60fd42	-0.054929025
7	0x3a4eaf6a	0.0007884415
8	0xbc5c31af	-0.01343958
9	0xbbc14767	-0.0058984044
10	0x3cef9e2f	0.029250233
11	0x3ca929ae	0.020649757
12	0x3c58bfa4	0.013229284
13	0xbd913e83	-0.07092001
14	0xbd8bf3f0	-0.06833637
15	0xbd94a9c4	-0.07258943
16	0x3c44a6db	0.012002672
17	0x3d132927	0.035927918
18	0x3c60e402	0.013726236
19	0xb9511ad8	-0.00019941793
20	0xbc664d38	-0.014056496
21	0xbca7c5c3	-0.020480042
22	0x3d6ef33e	0.058337443
23	0xbd719b48	-0.05898598
24	0xbd041485	-0.03224613
25	0x3d69001d	0.056884874
26	0xbc899d7c	-0.016798727
27	0xbbdd002a	-0.0067444043
28	0x3d2c8024	0.042114392
29	0x3c8c2099	0.017105388
30	0x3d81ed3d	0.06344078
31	0xbd9eeb31	-0.07759703
32	0xbd02754b	-0.03185014
33	0xbc6cbf11	-0.014449851
34	0xbce5bdc9	-0.028044598
35	0x3c5f7307	0.0136382645
36	0xbd88bcc9	-0.06676633
37	0xbcf39277	-0.029732926
38	0xbd330f38	-0.043715686
39	0x3d3ba3e3	0.04581059
40	0x3d8c9e93	0.06866183
41	0x3d157bae	0.036494903
42	0x3bb32ca0	0.005467966
43	0x3c77776f	0.015104159
44	0xbc80a0ea	-0.01570173
45	0xbca2c265	-0.019868085
46	0x3da878c3	0.082261585
47	0xbd5f744c	-0.05455427
48	0xbc54c653	-0.012986737
49	0xbd9ebb5a	-0.07750578
50	0x3da51f43	0.08062603
51	0xbdad2fc1	-0.08456374
52	0x3d5db369	0.054126177
53	0xbcb59b9a	-0.022168923
54	0x3d25916a	0.04042188
55	0x3d00fedf	0.031493064
56	0xbd0d86a4	-0.03455223
57	0xbda6cb08	-0.08144194
58	0x3d97b11c	0.07406828
59	0x3d2cec3b	0.042217474
60	0x3d72ff73	0.059325647
61	0x3d83ccee	0.064355716
62	0xbd7efcdb	-0.06225286
63	0x3d466ac4	0.048441663
64	0xbd3bf452	-0.0458873
65	0x3d806f19	0.0627119
66	0x3d173df4	0.036924317
67	0x3bb67cae	0.005569062
68	0xbd12bffa	-0.035827614
69	0xbce75a24	-0.028241225
70	0x3d583ee3	0.05279435
71	0x3da42746	0.08015303
72	0x3d5c1f87	0.053741004
73	0xbd86988c	-0.06572065
74	0x3ce0a0b9	0.027420389
75	0xbd34df76	-0.04415842
76	0xbd4cc08e	-0.049988322
77	0xbd0a4bee	-0.03376382
78	0x3d05242d	0.032505203
79	0x3d95e983	0.073199295
80	0xbd6a03b2	-0.05713243
81	0x3da7fc19	0.08202381
82	0x3d536284	0.051607624
83	0xbd95b55f	-0.073099844
84	0xbd8a87af	-0.06764161
85	0xbd6e8752	-0.05823452
86	0xbd4e86ae	-0.05042141
87	0x3bd87204	0.0066053886
88	0xbd352739	-0.04422686
89	0x3cbd7025	0.023124764
90	0x3d8a9e45	0.06768469
91	0xbcca3a0b	-0.02468588
92	0x3d1ee7d0	0.038795292
93	0xbd103f9a	-0.035216905
94	0x3d7ec711	0.062201563
95	0x3da5e529	0.081003495
96	0xbd83277b	-0.06404015
97	0x3b6a25af	0.0035728028
98	0xbd0aebbb	-0.033916216
99	0x3c22a639	0.009927326
100	0x3d08df03	0.033415806
101	0xbc25e2b5	-0.010124852
102	0x3a14bc88	0.00056738453
103	0xbaba1b87	-0.0014198878
104	0x3c724497	0.014786861
105	0xbd012177	-0.031526055
106	0xbd8b5ba0	-0.068045855
107	0xbd85149b	-0.06498071
108	0xbd506d1b	-0.0508853
109	0xbd810fb5	-0.06301824
110	0xbd4bea86	-0.049784206
111	0xbd9e7449	-0.077370234
112	0x3ca4b6e5	0.020106742
113	0x3c86065d	0.016360456
114	0x3c518d4f	0.012790038
115	0x3d7026f4	0.0586309
116	0xbcfe6172	-0.031052325
117	0x3d92a7a2	0.0716088
118	0xbd04ff27	-0.032469895
119	0x3c69a6c9	0.014260956
120	0xbd83b8f6	-0.06431763
121	0xbd34d8f1	-0.044152204
122	0xbcd78118	-0.026306674
123	0x3d288213	0.041139673
124	0x3c363163	0.011120173
125	0x3d989404	0.07450107
126	0x3cc77ac8	0.024350539
127	0x3d35a9b9	0.044351313

value_stream.0.weight f4 [128, 128]
0	0x3c334a5c	0.010943022
1	0x3c2d396a	0.010572771
2	0x3d539d16	0.05166348
3	0x3cc1eb52	0.02367178
4	0xbba5b1e2	-0.0050566057
5	0xbc464d10	-0.012103334
6	0xbd8edba7	-0.06975489
7	0x3b53f726	0.0032343357
8	0xbc83880b	-0.016056081
9	0x3d896ac5	0.06709818
10	0xbd756e36	-0.05991956
11	0x3d6f130d	0.058367778
12	0xbbdbecb9	-0.006711569
13	0x3ca36b2e	0.019948568
14	0xbd735407	-0.059406307
15	0xbaf9a45e	-0.0019046178
16	0x3d6e6a75	0.058206994
17	0xbd5a7972	-0.053338476
18	0x3b653d1b	0.0034979049
19	0x3ce51012	0.027961764
20	0x3d7e6d53	0.06211598
21	0x3d5f99eb	0.054590147
22	0x3d74fa49	0.059809003
23	0x3c658732	0.014009284
24	0x3caa3ad5	0.020780006
25	0xbd6e9953	-0.05825169
26	0xba6fd0d8	-0.00091482466
27	0xbc8092c2	-0.01569498
28	0xbd95c34d	-0.07312641
29	0x3d8be7cd	0.06831322
30	0x3da01286	0.07816033
31	0x3d0fcecf	0.035109337
32	0x3d8caa74	0.06868449
33	0xbca8bc74	-0.020597674
34	0xbce4efb0	-0.027946323
35	0xbd855058	-0.06509465
36	0xbd9fabe5	-0.07796458
37	0xbd55285e	-0.05204045
38	0xbd38105e	-0.044937484
39	0xbcc3e2bc	-0.023911826
40	0xbc37befd	-0.011214969
41	0x3cd1cc25	0.025610039
42	0xbd94e35f	-0.0726993
43	0xbd787f91	-0.06066853
44	0xbd8e551c	-0.06949827
45	0xbd5cdeff	-0.053923603
46	0xbd5dbb7b	-0.054133873
47	0xbd8f72e9	-0.07004339
48	0x3ce87df7	0.028380377
49	0xbc81f52f	-0.015863983
50	0x3c15178e	0.009099854
51	0x3d8919f9	0.06694407
52	0xbd47d514	-0.04878719
53	0xbbd26b5e	-0.0064214906
54	0xbd9430de	-0.07235883
55	0xbd58026f	-0.052736696
56	0x3d0836dd	0.033255447
57	0x3d44d812	0.048057623
58	0xbd1b3fc8	-0.037902623
59	0xbd1395e3	-0.036031615
60	0x3ce44887	0.027866615
61	0x3c889bd9	0.016675876
62	0x3da2fba7	0.07958155
63	0x3d018b2c	0.031626865
64	0x3d242bd3	0.040080857
65	0x3ca4cad7	0.020116253
66	0x3d724cfa	0.05915544
67	0xbce24392	-0.02762011
68	0x3bfaec77	0.0076575833
69	0xbd99ae70	-0.075039744
70	0x3d0c7c46	0.034298204
71	0x3c08cb0b	0.0083491905
72	0x3cefcef3	0.029273486
73	0x3d3a2e95	0.04545458
74	0x3d0ea385	0.034823913
75	0xbd95d0c5	-0.0731521
76	0x3d81d06c	0.063385814
77	0xbba434ab	-0.0050111613
78	0xbc6d033b	-0.014466102
79	0x3d106d94	0.03526075
80	0xbd882f2b	-0.066496216
81	0x3d633733	0.055472564
82	0x3c52758d	0.012845409
83	0xba94dc0c	-0.0011357083
84	0xbd88cc95	-0.06679646
85	0xbd32583e	-0.043541186
86	0x3cf470ef	0.029839007
87	0xbcbb2701	-0.022845747
88	0x3d8dc25b	0.06921836
89	0xb9d58cac	-0.00040731335
90	0xbc6116c7	-0.013738341
91	0xbd49459d	-0.049138654
92	0x3d5c4a1a	0.053781606
93	0x3cdd17cd	0.026988888
94	0xbd9ea692	-0.077466145
95	0x3bf13e00	0.0073621273
96	0x3d000d76	0.031262837
97	0xbd1ec44c	-0.038761422
98	0xbb1d0346	-0.002395825
99	0x3d213cde	0.039364688
100	0x3d6a5880	0.057213306
101	0x3ce62dae	0.028097954
102	0xbc4dfb0a	-0.012572059
103	0xbcfce831	-0.030872436
104	0x3b0392fa	0.0020076619
105	0x3b02e962	0.0019975533
106	0x3d3f9b06	0.0467787
107	0x3d93cfc9	0.07217366
108	0x3c55b14d	0.01304276
109	0x3d441378	0.04787013
110	0x3d54819d	0.05188142
111	0xbcb2ab74	-0.02181027
112	0x3d88ca92	0.06679262
113	0xbcdfa9c8	-0.027302638
114	0x3da6c0ea	0.08142264
115	0xbd4ddb5b	-0.05025802
116	0x3b177171	0.0023108388
117	0xbd6b686e	-0.05747264
118	0x3d6884af	0.056767162
119	0xbd7ab0a3	-0.06120361
120	0xbcb39c72	-0.021925185
121	0xbd3027fa	-0.043006875
122	0xbd1921df	-0.037385818
123	0xbcc3fb5f	-0.023923574
124	0xbc8f19b6	-0.017468315
125	0x3d57ea8d	0.05271392
126	0x3c95e66e	0.018298354
127	0x3d08bf4f	0.03338557
128	0x3c729679	0.014806383
129	0xbd744b0d	-0.059641887
130	0x3d9fcbd1	0.07802547
131	0xbd805750	-0.062666535
132	0x3d3123f5	0.043247182
133	0xbd61d1c0	-0.055131674
134	0x3cf18ae4	0.029485174
135	0xbb4b9389	-0.003106328
136	0x3d39590e	0.045250945
137	0x3ce3ac85	0.027792225
138	0xbc82ba8e	-0.015958097
139	0x3d246c6f	0.040142473
140	0x3d038ac2	0.03211475
141	0xbd8c60d0	-0.06854403
142	0xbbaa430b	-0.0051959804
143	0x3c8b5aaa	0.017011005
144	0x3c39a434	0.011330653
145	0xbd2b45ed	-0.041814733
146	0x3c7f7eec	0.015594225
147	0x3d6f9116	0.058487974
148	0x3da08025	0.07836942
149	0xbd3a1780	-0.045432568
150	0x3d577667	0.05260315
151	0xbd5e98a2	-0.05434478
152	0xbd9ef06f	-0.07760703
153	0xbd71aeb4	-0.0590045
154	0xbd8ede1a	-0.06975956
155	0xbd9c8fb6	-0.07644598
156	0x3cd9e3e6	0.026597928
157	0x3d809d2f	0.062799804
158	0x3c5c8984	0.013460521
159	0xbce921c6	-0.028458487
160	0xbd4b524f	-0.049639042
161	0x3da6ae29	0.08138687
162	0xbd30230c	-0.043002173
163	0xbbd09ab6	-0.006366099
164	0xbd1403dc	-0.036136493
165	0x3d931261	0.0718124
166	0xbcd77f0a	-0.026305694
167	0xbd798d85	-0.06092598
168	0xbc88e69e	-0.01671153
169	0xbb8405cd	-0.004029012
170	0xbd0d584a	-0.034508027
171	0xbd2b1935	-0.041772086
172	0xbd981f8b	-0.07427891
173	0x3b92b974	0.004477674
174	0x3da19463	0.07889631
175	0x3b52fbcb	0.0032193537
176	0xbd14793d	-0.036248434
177	0x3d8be874	0.06831446
178	0xbd66ff75	-0.056395967
179	0x3d889b48	0.066702425
180	0xbd2c0c90	-0.042004168
181	0x3d518ff7	0.051162686
182	0xbd07b789	-0.033134017
183	0x3bcf537f	0.006327092
184	0xbcd6b6e6	-0.02621026
185	0x3d81e5c1	0.0634265
186	0xbca06849	-0.019580977
187	0x3d52dc8b	0.051479857
188	0x3be5dd34	0.007014895
189	0x3cb951d6	0.02262203
190	0xbd288c86	-0.04114964
191	0xbb977adc	-0.0046228003
192	0xbd8e0bc0	-0.06935835
193	0x3d94e1d6	0.07269637
194	0x3d7ee6bb	0.06223176
195	0x3d938542	0.07203151
196	0x3d8829c1	0.06648589
197	0x3cf1609f	0.029465018
198	0x3c7059b3	0.014669823
199	0x3bfbf5a8	0.0076891966
200	0x3d72d2ad	0.059282947
201	0xbd0e6413	-0.034763407
202	0x3d8236dd	0.063581206
203	0xbc9998cb	-0.018749615
204	0x3c606a1d	0.013697174
205	0xbd96c4bd	-0.073617436
206	0x3b8a7bd9	0.0042261896
207	0x3c48e1a6	0.01226083
208	0xbd386c9f	-0.045025464
209	0xbcb4afb2	-0.022056434
210	0x3c80fe56	0.015746277
211	0x3cad35a6	0.021143746
212	0x3cf309d5	0.029667774
213	0x3d8185f4	0.06324378
214	0xbccc67a0	-0.024951756
215	0xbcd23039	-0.02565776
216	0x3d685b33	0.0567276
217	0xbd7fd289	-0.06245664
218	0x3cb4362d	0.02199849
219	0x3d8d2e56	0.068936035
220	0x3d668457	0.056278553
221	0x3cb3a774	0.021930434
222	0x3d7c85af	0.061650928
223	0xbc46c73e	-0.012132464
224	0x3c0d9e2d	0.008643669
225	0xbba55a38	-0.0050461553
226	0xbbe61f9f	-0.0070228125
227	0x3d35c0e8	0.044373423
228	0xbcf8f0da	-0.030388284
229	0xbd4495b5	-0.047994334
230	0xbd4006a2	-0.046881326
231	0x3d9f6464	0.0778282
232	0xbdae8632	-0.085216895
233	0xbd54895c	-0.05188881
234	0x3d2ab52c	0.041676685
235	0xbd50c711	-0.050971095
236	0x3d0293dc	0.03187929
237	0xbd246a8f	-0.040140685
238	0xbd3e99c0	-0.046533346
239	0x3d28ea7d	0.04123925
240	0x3d0c9194	0.03431852
241	0xbd55b661	-0.052175883
242	0x3d7c7fb4	0.061645225
243	0xbbf6559c	-0.0075175297
244	0xbd342a32	-0.043985553
245	0xbcb38eef	-0.021918742
246	0xbd95a145	-0.0730615
247	0x3d84b3d7	0.06479614
248	0x3d9c5527	0.07633429
249	0x3d9d2ed5	0.07674948
250	0xbd0874fc	-0.03331469
251	0xbd0e45f7	-0.034734692
252	0xbd8df470	-0.069313884
253	0x3b16eacf	0.002302814
254	0xbda29556	-0.0793864
255	0x3c1dc34e	0.009629084

value_stream.0.bias f4 [128]
0	0x3d272c1c	0.04081355
1	0x3d733019	0.05937204
2	0x3d79d7a0	0.06099665
3	0x3d1d686c	0.038429663
4	0x3c89825c	0.016785793
5	0x3cd1c022	0.025604311
6	0x3d3101e6	0.0432147
7	0xbd767e4b	-0.060179036
8	0x3d965686	0.07340722
9	0x3b346980	0.0027528703
10	0xbd1acc13	-0.037792277
11	0xbd61856f	-0.055058893
12	0x3d5dd621	0.054159287
13	0x3d8565d8	0.06513566
14	0xbd80e1ce	-0.06293069
15	0x3cb05f2a	0.021529753
16	0x3d82b318	0.06381816
17	0x3cb411a0	0.02198106
18	0x3b22c45a	0.0024836273
19	0xbcf4d5e7	-0.029887153
20	0x3daddeef	0.08489787
21	0x3d6b15d2	0.057393856
22	0x3d86ae2a	0.06576188
23	0x3d85c158	0.06531018
24	0x3d25ff8a	0.040526904
25	0xba14db8c	-0.0005678467
26	0xbd567dc9	-0.05236605
27	0xbd7cb47e	-0.06169557
28	0x3d060158	0.032716125
29	0xbc26e2dd	-0.010185924
30	0xbd0aa680	-0.033850193
31	0xbd9df319	-0.07712383
32	0xbd4f75ad	-0.050649334
33	0xbd1fe404	-0.039035812
34	0x3ce57058	0.028007671
35	0xbd0bd695	-0.03414019
36	0x3d550df0	0.052015245
37	0xbd8d7b3b	-0.0690827
38	0x3d86f2d1	0.06589282
39	0x3d292209	0.041292224
40	0x3ade463f	0.0016958191
41	0xbbf8fe78	-0.0075986944
42	0xbd669b1c	-0.056300268
43	0x3d7950ae	0.060867958
44	0x3b9a7368	0.0047134645
45	0xbb65d926	-0.0035072058
46	0x3cdfd54f	0.027323393
47	0x3d97db66	0.07414894
48	0xbd1866f2	-0.03720755
49	0xbbefe839	-0.0073213843
50	0xbd1834e7	-0.037159827
51	0xbc9f1b24	-0.019422121
52	0x3d2c42c7	0.04205587
53	0xbd45c2a6	-0.048281334
54	0x3c5a4cec	0.013324004
55	0xbd85f22a	-0.0654033
56	0x3d2cde9c	0.042204484
57	0xbd1c3015	-0.038131792
58	0x3c8fc3d1	0.017549427
59	0xbd258969	-0.040414248
60	0xba15e7a4	-0.0005718416
61	0xbbf0e13f	-0.00735107
62	0x3be04801	0.006844521
63	0xbd8a623a	-0.067570165
64	0xbd51afee	-0.05119317
65	0xbd906e10	-0.07052243
66	0x3d6350d2	0.055496998
67	0xbd9a5836	-0.07536356
68	0xbc9f5e0e	-0.019454028
69	0xbd07d70a	-0.03316406
70	0xbca65098	-0.020302102
71	0xbcb223dc	-0.021745615
72	0xbcd15720	-0.02555424
73	0xbc0ed3cb	-0.008717488
74	0xbd339434	-0.04384251
75	0x3d7b8cd4	0.0614136
76	0xbc442b7f	-0.011973261
77	0xbd868ee3	-0.06570222
78	0x3d04f877	0.032463517
79	0xbc50a7bb	-0.012735303
80	0xbc3752ec	-0.011189204
81	0xbd754563	-0.059880625
82	0x3d4c1bb9	0.049831126
83	0xbd9b7d27	-0.0759223
84	0x3d7bfe4c	0.061521813
85	0x3d22da5c	0.039759025
86	0xbaf3be66	-0.0018596172
87	0xbd95230d	-0.07282076
88	0x3bb74c58	0.0055938177
89	0x3d8cca64	0.068745404
90	0xbc419850	-0.011816099
91	0x3cd7edcb	0.026358506
92	0x3cfd849f	0.030947028
93	0x3d1d0e64	0.038343802
94	0x3d80b040	0.06283617
95	0x3d81e1cb	0.06341895
96	0x3c9b70dc	0.018974714
97	0xbd056281	-0.032564644
98	0x3d90008f	0.070313565
99	0x3d1e0e5f	0.038587924
100	0xbd1d635a	-0.038424827
101	0x3d785cb3	0.06063528
102	0xbda652a4	-0.08121231
103	0xba6b631a	-0.0008979306
104	0x3bc96c52	0.006146946
105	0x3d6ed666	0.058309935
106	0xbd124376	-0.035708867
107	0xbc7c70ce	-0.015407754
108	0x3d8f90b4	0.07010022
109	0x3d8ef58f	0.0698043
110	0x3d84fe75	0.06493846
111	0xbd8e4513	-0.069467686
112	0x3c242efa	0.010020966
113	0xbd7235a0	-0.059133172
114	0xbd8a4a90	-0.06752503
115	0x3cb603df	0.022218643
116	0x3d5ccbe9	0.0539054
117	0x3d8944ce	0.067025766
118	0xbcbbd3e6	-0.02292819
119	0xbc565a04	-0.013082985
120	0xbc9e0d27	-0.01929338
121	0x3cfb7560	0.030695617
122	0xbda199ea	-0.07890685
123	0xbd7011c3	-0.05861069
124	0x3d964f1a	0.07339306
125	0xbd235a45	-0.03988101
126	0xbd607e20	-0.054807782
127	0xbd55e2cb	-0.05221824

value_stream.2.weight f4 [1, 128]
0	0xbd90d371	-0.07071579
1	0xbb0994b5	-0.0020993177
2	0xbcd465f5	-0.025927523
3	0x3da95eda	0.082700446
4	0xbcdb460c	-0.0267668
5	0x3c88edc7	0.016714944
6	0xbd04998c	-0.032372996
7	0x3c1ad18b	0.009449373
8	0xbd14d8f2	-0.036339708
9	0xbd691ff5	-0.056915242
10	0x3dac4e60	0.08413386
11	0xbd483763	-0.048880946
12	0xbb6643bf	-0.0035135595
13	0x3d9bbde0	0.07604575
14	0x3d089b5e	0.033351295
15	0xbbfacb2f	-0.007653616
16	0xbda7cb23	-0.08193042
17	0xbb8acfdd	-0.004236205
18	0xbd638150	-0.055543244
19	0xbcfba3f5	-0.03071783
20	0xbd919a3f	-0.07109498
21	0x3cdca66b	0.026934823
22	0xbb16c26f	-0.0023004075
23	0xbd8883a6	-0.06665735
24	0x3d3b9350	0.045794785
25	0x3ba4c899	0.005028796
26	0xbcc528fa	-0.02406739
27	0x3d9ceda1	0.076625116
28	0x3d51e441	0.05124307
29	0xbdaa1662	-0.083050504
30	0x3cc52d6d	0.024069512
31	0xbda428ff	-0.08015632
32	0x3cc430d8	0.023949072
33	0xbcd46694	-0.02592782
34	0x39b5b0e7	0.00034654813
35	0xbd5a78a5	-0.05333771
36	0x3d88bc45	0.066765346
37	0x3ba619bf	0.005068987
38	0x3d680956	0.05664953
39	0x3d39d7f7	0.045371976
40	0xbd799466	-0.06093254
41	0xbda0d936	-0.0785393
42	0xbda0f5b7	-0.078593664
43	0x3d3ca66b	0.046057146
44	0x3d748af3	0.059702825
45	0x3d9b733b	0.07590338
46	0x3ca18044	0.019714482
47	0x3d41f7b8	0.047355384
48	0xbc14be13	-0.00907852
49	0x3d3cffe6	0.04614248
50	0x3cbbf99b	0.02294617
51	0x3d710523	0.05884279
52	0x3d9dba34	0.07701531
53	0x3d521da5	0.051297802
54	0xbd219537	-0.039448943
55	0x3c9cd9ea	0.019146878
56	0xbd33fd31	-0.043942634
57	0x3d86a778	0.06574911
58	0x3d1f77f9	0.038932774
59	0xbb740c0f	-0.0037238633
60	0x3d6a65ce	0.057225995
61	0xbc11c31a	-0.0088966135
62	0xbd723374	-0.0591311
63	0x3d8ed8d9	0.06974954
64	0x3d36812d	0.044556785
65	0x3d8cdf81	0.068785675
66	0x3d932fb6	0.071868345
67	0xbc6226db	-0.013803209
68	0x3d626a99	0.05527744
69	0xbc41c843	-0.011827531
70	0xbd4ef11d	-0.050522912
71	0xbd841a14	-0.064502865
72	0xbcddb379	-0.027063118
73	0x3d90672c	0.070509285
74	0x3d6f2a60	0.05839002
75	0xbcb0ba65	-0.021573255
76	0xbb71e1a4	-0.0036908174
77	0xbcf9c56e	-0.03048965
78	0x3c8792dc	0.01654952
79	0xbcf26846	-0.029590737
80	0x3c0a7797	0.008451364
81	0xbb8b7f21	-0.0042570983
82	0xbd941efb	-0.072324716
83	0x3d670361	0.056399707
84	0x3d8dfd83	0.06933119
85	0xbbb6f054	-0.0055828486
86	0xbd4a2fad	-0.049361873
87	0x3d8d441e	0.06897758
88	0xb9d0b54d	-0.0003980793
89	0x3da05a79	0.07829756
90	0x3c22d751	0.009939031
91	0xbcb07f00	-0.021544933
92	0x3cde3e7c	0.027129404
93	0x3d69f1d6	0.0571154
94	0x3d4cd4aa	0.0500075
95	0xbd8f3151	-0.06991828
96	0x3c82ad50	0.015951782
97	0xbd8ffeba	-0.07031007
98	0xbc57cd1f	-0.013171463
99	0x3d5e2f37	0.054244246
100	0xbc8237a0	-0.015895665
101	0xbbe339ca	-0.006934379
102	0xbd5f8b39	-0.054576132
103	0xbd6a4125	-0.057191033
104	0x3cbe6826	0.023243021
105	0xbcc13da5	-0.023588965
106	0x3c39c314	0.011338014
107	0x3c65af57	0.014018855
108	0x3d6159e3	0.055017363
109	0x3b94d41a	0.004541886
110	0x3da466a3	0.08027389
111	0xb9850ec7	-0.00025378747
112	0xbd505e2f	-0.05087107
113	0x3c8dc2b3	0.017304754
114	0x3d50a0ea	0.05093471
115	0x3d697319	0.05699453
116	0xbd1c2e28	-0.038129956
117	0xbb25cd16	-0.0025299243
118	0x3d8aa029	0.067688294
119	0xbca6fff8	-0.020385727
120	0x3ce9f3c0	0.028558612
121	0x3b6440a1	0.003482856
122	0xbd8eb2e7	-0.06967717
123	0x3c2ca26f	0.010536774
124	0x3d9ec7ab	0.077529274
125	0xbd637053	-0.055527043
126	0x3d60eed1	0.054915253
127	0x3c437edc	0.011932101

advantage_stream.0.weight f4 [128, 128]
0	0xbc288316	-0.01028516
1	0xbd189a96	-0.0372568
2	0xbce6b8b8	-0.028164253
3	0x3d59ee67	0.053205874
4	0xbac4cc10	-0.0015014429
5	0x3d66e808	0.056373626
6	0x3d85fc88	0.06542307
7	0x3cfa9afa	0.030591477
8	0x3d43c1f7	0.0477924
9	0x3d420f7f	0.04737806
10	0xbb3a9a5f	-0.002847336
11	0xbc9135ef	-0.017725913
12	0xbbaef697	-0.0053394544
13	0xbd3edeed	-0.046599317
14	0xbd1840b5	-0.037171084
15	0xbd6ed136	-0.058304988
16	0xbc88977b	-0.016673794
17	0x3c48c3af	0.012253686
18	0xbd99be71	-0.07507027
19	0xbd698cdf	-0.05701911
20	0xbd9a6b01	-0.075399406
21	0x3cb8a8ae	0.02254137
22	0x3cf1caa0	0.029515564
23	0x3cde27d7	0.027118606
24	0xb9bb5a90	-0.00035734894
25	0x3d8e6897	0.06953543
26	0x3d5e83db	0.054324966
27	0xbd8bc1ef	-0.06824099
28	0xbd1d5508	-0.03841117
29	0xbd212a9f	-0.039347287
30	0x3b729017	0.0037012154
31	0xbd4f4e42	-0.05061174
32	0x3d726217	0.059175577
33	0xbc9a7e8a	-0.018859167
34	0xbd9c1da6	-0.076228425
35	0x3d721c18	0.059108824
36	0x3b94761d	0.0045306818
37	0x3c262ab8	0.010142021
38	0x3d179f52	0.037017174
39	0xbc8589cc	-0.016301058
40	0x3bf76306	0.0075496463
41	0xbd019973	-0.03164048
42	0xbb2707e6	-0.0025486886
43	0x3cf161fc	0.029465668
44	0xbc10844d	-0.008820605
45	0x3c2554e6	0.010091042
46	0xbd903444	-0.07041219
47	0x3d6975dc	0.056997165
48	0xbd32387a	-0.04351089
49	0xbce0e759	-0.027454065
50	0xbd7f0969	-0.062264834
51	0xbd055fc0	-0.032562017
52	0x3d86585a	0.065598205
53	0x3d0dc67a	0.03461311
54	0x3dad0637	0.08448451
55	0xbd424ca6	-0.04743638
56	0x3d1f2763	0.03885592
57	0xbcdd0f8f	-0.026984958
58	0x3d8c01d1	0.06836284
59	0xbd6a2e91	-0.057173315
60	0xbcde3b55	-0.027127901
61	0xbd93058c	-0.07178792
62	0x3d95d875	0.073166765
63	0xbcd4cca2	-0.025976483
64	0x3cc8adde	0.024496969
65	0x3da7421d	0.08166907
66	0xbd8e7d2e	-0.0695747
67	0x3d2a97f7	0.04164883
68	0xbcee8fa9	-0.029121237
69	0xbd10b556	-0.035329185
70	0xbda0bd51	-0.07848609
71	0x3d0e48bd	0.034737337
72	0x3d3dd96f	0.04634994
73	0x3d0552de	0.03254973
74	0xbc047c78	-0.008086316
75	0x3d79de9e	0.06100332
76	0xbd7e64fa	-0.062108018
77	0x3cbba619	0.02290635
78	0x3c55d164	0.013050411
79	0x3d2e9930	0.04262656
80	0x3d936f48	0.071989596
81	0x3c242876	0.010019412
82	0xbd418fe8	-0.04725638
83	0xbcd30dcf	-0.02576342
84	0x3d53f337	0.05174562
85	0xbbf32008	-0.00741959
86	0x3d1a17b4	0.03762026
87	0xbd3165da	-0.043310024
88	0x3d6c5981	0.057702545
89	0x3c232936	0.009958556
90	0xbd0769ce	-0.033059888
91	0x3d44a299	0.048006628
92	0xbd349c8a	-0.0440946
93	0x3d7938a7	0.060845044
94	0x3c9b1a15	0.018933335
95	0xbcf8d3f7	-0.03037451
96	0x3d3667c2	0.044532545
97	0x3cbe5bfc	0.023237221
98	0xbda1ab45	-0.07893995
99	0xbd0cb4eb	-0.034352224
100	0x3d12d8f1	0.035851423
101	0x3d8f9194	0.07010189
102	0xbd8cbcf2	-0.06871976
103	0xbd3709e3	-0.044687163
104	0xbd840342	-0.06445934
105	0xbca4148b	-0.020029327
106	0xbd995133	-0.07486191
107	0xbd9f6af7	-0.07784074
108	0xbc4f17f3	-0.012639987
109	0xbca9191f	-0.020641861
110	0xbd84ad7f	-0.06478404
111	0xbd821717	-0.0635206
112	0xbd6f4107	-0.058411624
113	0xbb8d9423	-0.004320638
114	0xbd9f9265	-0.077915944
115	0x3ccd6f04	0.02507735
116	0xbbc59556	-0.006029765
117	0x3d166f34	0.036727145
118	0x3ce0330b	0.02736809
119	0x3d56c79f	0.052436467
120	0x3bc1d85d	0.005915685
121	0x3d2de0a0	0.042450547
122	0xbcf446cf	-0.02981892
123	0xbc0ad032	-0.008472489
124	0x3c861df0	0.016371697
125	0xbd9c19b2	-0.076220885
126	0xbd3182c3	-0.043337595
127	0x3ce75eb3	0.028243398
128	0xbd85b392	-0.06528391
129	0xbcf07144	-0.029350884
130	0x3cb34a9f	0.021886168
131	0xbd5651e2	-0.052324183
132	0x3d51c408	0.05121234
133	0xbd8e5603	-0.06949999
134	0x3d544b59	0.05182967
135	0xbced072c	-0.028934084
136	0xbd48b4e8	-0.04900065
137	0xbd4c66fa	-0.049902894
138	0xbd53cfd1	-0.05171186
139	0x3b0beddf	0.00213515
140	0x3d9a078f	0.07520973
141	0xbcff9389	-0.03119828
142	0x3d29ce4b	0.041456502
143	0x3d4461dd	0.047944892
144	0xbd0067c5	-0.031348962
145	0xbd5fad9e	-0.054608934
146	0xbcfdaf88	-0.030967489
147	0x3d90dbf8	0.07073206
148	0xbd7ff27a	-0.062487103
149	0x3d98524e	0.074375734
150	0xbd07002f	-0.03295916
151	0x3d994a73	0.07484903
152	0x3bbb86b4	0.005722845
153	0x3cd6e318	0.026231334
154	0xbd378d6a	-0.044812597
155	0x3ccbf464	0.024896808
156	0x3d44859a	0.047978975
157	0xbda68bf8	-0.08132166
158	0xbcfc2427	-0.030778958
159	0xbb955600	-0.004557371
160	0x3cb42189	0.021988647
161	0x3c46161e	0.012090234
162	0xbc3d76d8	-0.011563979
163	0xbd0266e0	-0.03183639
164	0x3c2da351	0.01059802
165	0x3d5060e2	0.050873645
166	0xbd9076b1	-0.070538886
167	0x3c0e3b56	0.008681139
168	0xbd00f165	-0.03148021
169	0xbc0c6d42	-0.008570971
170	0xbd356409	-0.044284854
171	0x3d9d5e8f	0.07684051
172	0xbd8c9d66	-0.06865959
173	0xbc07ff32	-0.008300589
174	0x3d69c367	0.057071116
175	0x3beff2a8	0.007322628
176	0x3d8f7658	0.07004994
177	0x3c7c467a	0.015397662
178	0x3d8c7872	0.068589106
179	0xbd7d5a47	-0.061853673
180	0x3d991dfe	0.07476424
181	0xbd6a24ff	-0.05716419
182	0x3daf862c	0.08570513
183	0x3bbda36e	0.0057873046
184	0xbd8a195e	-0.0674312
185	0xbce2dd6d	-0.027693475
186	0x3d8fa0e8	0.07013112
187	0xbd84f2e1	-0.06491638
188	0x3d3fb0cc	0.046799466
189	0xbd5ff14f	-0.05467349
190	0x3ccc2e07	0.024924291
191	0x3d47b6ed	0.048758436
192	0xbd070681	-0.032965187
193	0xbda80564	-0.08204153
194	0x3dac3a2f	0.08409535
195	0x3d93a5e3	0.07209375
196	0x3d4e2433	0.05032749
197	0x3c88d770	0.016704291
198	0xbda75f3e	-0.08172463
199	0x3c7a0311	0.01525952
200	0xbd490758	-0.04907927
201	0xbd827bfb	-0.06371304
202	0x3b38df1b	0.0028209153
203	0x3bc18cb0	0.005906664
204	0x3d1111f3	0.03541751
205	0xbc029fe7	-0.007972694
206	0xbd5b652f	-0.053563293
207	0xbc1b205f	-0.009468167
208	0xbd951326	-0.07279043
209	0x3d3504ff	0.044194218
210	0x3bc7168a	0.006075685
211	0xb9df9293	-0.0004264308
212	0xbd775722	-0.06038583
213	0x3b07ca13	0.002071981
214	0x3c785d8c	0.015159022
215	0x3d03502f	0.03205889
216	0x3d71635c	0.058932647
217	0x3d1470da	0.036240436
218	0xbd8073d8	-0.062720954
219	0x3da22a96	0.07918279
220	0x3bb005da	0.0053717913
221	0xbda09d21	-0.0784247
222	0xbcf4377f	-0.029811619
223	0x3c0be7a7	0.008539117
224	0xbd078d20	-0.03309357
225	0x3d8ac3d6	0.06775634
226	0x3b38d2fd	0.002820193
227	0xbd94b64e	-0.07261334
228	0xbcbb0162	-0.022827808
229	0x3ccd0a76	0.025029402
230	0xbd132ecb	-0.035933297
231	0x3d8adb64	0.06780127
232	0x3cdcf378	0.026971564
233	0xbd5600e6	-0.05224695
234	0x3d692841	0.056923155
235	0x3d60e444	0.05490519
236	0x3d14a886	0.03629353
237	0x3ce20631	0.027590843
238	0xbd4eda99	-0.05050144
239	0xbd6bef93	-0.057601523
240	0x3d60c3f3	0.05487437
241	0xbd8512e8	-0.06497747
242	0x3b2dc38e	0.0026514265
243	0x3b9033d9	0.004400712
244	0x3cc91339	0.024545299
245	0xbc827304	-0.015923984
246	0xbd7cd27f	-0.061724182
247	0x3c56056b	0.013062815
248	0xbd611e54	-0.054960564
249	0xbd3260fa	-0.043549515
250	0x3d21b0e5	0.03947534
251	0x3c01c350	0.007920101
252	0xbc347e47	-0.011016435
253	0xbbd1303d	-0.0063839243
254	0x3d745c9a	0.059658624
255	0xbb705efc	-0.003667771

advantage_stream.0.bias f4 [128]
0	0xbd9e7958	-0.07737988
1	0x3cd79c52	0.026319657
2	0x3cf2d597	0.029642863
3	0x3d7b616b	0.061372202
4	0x3d06afdc	0.032882556
5	0x3cc783e1	0.024354877
6	0xbcf9e903	-0.030506616
7	0x3d1a4fdc	0.037673816
8	0xbd65abc0	-0.056071997
9	0xbcae743f	-0.021295665
10	0xbd75367b	-0.05986641
11	0xbd6ce7ef	-0.057838377
12	0x3b813035	0.0039425143
13	0x3cf4c821	0.029880585
14	0x3d051ede	0.03250014
15	0x3ae28025	0.0017280622
16	0x3abf1066	0.0014577031
17	0xbd9f054a	-0.07764681
18	0xbd4eecfa	-0.050518967
19	0xbd92c35b	-0.07166167
20	0x3c579ddc	0.013160195
21	0xbc97f05b	-0.018547228
22	0x3d04f09d	0.03245603
23	0x3c8abd14	0.016935863
24	0xbd8bdf62	-0.06829716
25	0x3d2f64ba	0.04282067
26	0xbc89fa15	-0.016842881
27	0x3ca09302	0.019601349
28	0x3bb36d56	0.0054756803
29	0x3c7af54a	0.0153172705
30	0x3cbf43c8	0.02334775
31	0xba49d7fb	-0.0007699725
32	0x3d45c699	0.0482851
33	0xbd929cc5	-0.07158808
34	0x3c3c443f	0.0114908805
35	0x3d92a1a9	0.071597405
36	0xbd434d9f	-0.047681447
37	0x3c9c6c18	0.019094512
38	0x3d0d9faa	0.034576096
39	0x3d7107c9	0.058845315
40	0x3d037027	0.03208938
41	0xbd03fd92	-0.032224245
42	0x3d97bbd6	0.07408874
43	0x3d9de8c8	0.07710415
44	0xbd9296b0	-0.071576476
45	0xbd9515e1	-0.07279564
46	0x3d81ee96	0.06344335
47	0xbd4ccef7	-0.050002065
48	0x3d162bdd	0.036662925
49	0xbb7b3406	-0.003833057
50	0x3d46f38b	0.048572104
51	0x3d9b4079	0.075806566
52	0xbbd72861	-0.006566093
53	0x3d11a8e5	0.03556146
54	0xbd057b8f	-0.032588538
55	0x3d289a8e	0.04116302
56	0x3cc3a8ce	0.023884203
57	0x3d5aa180	0.053376675
58	0x3d2288d0	0.039681256
59	0x3cd64a30	0.026158422
60	0x3ceafc8e	0.02868488
61	0xbd9f4410	-0.07776654
62	0x3d224cf9	0.039624188
63	0xbd6a479c	-0.0571972
64	0x3da781e9	0.08179075
65	0x3d9492d4	0.07254568
66	0x3d55025f	0.052004214
67	0x3d1ec57d	0.03876256
68	0xbcdeb888	-0.0271876
69	0xbd7eced6	-0.062208973
70	0xbd5324d9	-0.051548813
71	0xbda4292a	-0.08015664
72	0xbd987de2	-0.07445885
73	0xbd5dcc9c	-0.05415021
74	0xbc602b7a	-0.013682241
75	0x3d030cd0	0.03199464
76	0x3b401d94	0.0029314505
77	0x3cf2ab71	0.029622765
78	0xbd21cdbf	-0.039502855
79	0x3c770083	0.015075806
80	0x3d8b9b72	0.06816758
81	0x3c2dfc88	0.01061929
82	0xbd5fc659	-0.05463252
83	0xbd041e0a	-0.03225521
84	0x3ca66827	0.020313336
85	0xbd592e57	-0.05302271
86	0xbd3bd53d	-0.045857657
87	0x3b6eb076	0.0036421097
88	0x3c819482	0.015817884
89	0xbdb31abc	-0.087453336
90	0x3c9bed2e	0.019033995
91	0xbd9f142c	-0.07767519
92	0xbb6e9be2	-0.0036408831
93	0x3c790a81	0.015200258
94	0x3c77e5af	0.015130444
95	0xbc79023a	-0.015198285
96	0xbc737444	-0.014859263
97	0xbccb942b	-0.024850925
98	0x37b6ebd0	2.18059e-05
99	0xbcc21742	-0.02369273
100	0xbb31b897	-0.002711808
101	0xbcf3f9e3	-0.029782241
102	0x3da4e8f4	0.08052245
103	0xbd96ca43	-0.07362797
104	0x3d375a2f	0.04476374
105	0x3c8b6815	0.017017404
106	0x395d5b83	0.00021110293
107	0xbd71afeb	-0.05900566
108	0x3da002db	0.07813045
109	0xbcbdff55	-0.02319304
110	0xbd8eec48	-0.06978661
111	0x3c1c029e	0.009522108
112	0x3cedf9ee	0.02904984
113	0x3b84b7fa	0.004050252
114	0x3d066c7a	0.032818295
115	0x3d5b5a7d	0.053553093
116	0x3d00eae1	0.031473998
117	0xbc5d5d4a	-0.013511011
118	0x3d54f5af	0.051992115
119	0x3d666beb	0.056255262
120	0xbd18ccd3	-0.03730471
121	0x3daa8fba	0.08328195
122	0x3cbbe951	0.022938402
123	0x3cdca3f6	0.026933651
124	0xbd768996	-0.060189806
125	0xbc035dbf	-0.008017956
126	0x3c68359e	0.01417294
127	0xbc21f05c	-0.009883966
